saved_models/softmax_best_model.pt (torch, 246571 bytes, 1 tensors)

W f8 [3073, 10]
0	0x3f6da0fc6d3f3959	0.0036168031892664207
1	0xbf470c384d0eaefc	-0.0007033610255482155
2	0xbf6da33174cf6ef1	-0.0036178556388061158
3	0xbf7cdcbd01cc4e93	-0.007046449955641204
4	0xbf9f8968845e8a7d	-0.030797608451062154
5	0xbf89da6d1954b741	-0.012623646102465027
6	0x3f8a615591f49d8b	0.012880962864598519
7	0xbf71ac42bc88bf76	-0.004314671220114854
8	0x3fa58139ab858323	0.042001535594641724
9	0x3f43c4ae8e2ad43a	0.0006032802887917584
10	0xbf719b6ee198c42f	-0.004298623208840487
11	0x3f73b8562840fc22	0.00481446890995499
12	0x3f8380c859139041	0.009522977083584407
13	0xbf437e00445514da	-0.000594854479154218
14	0xbf85a119caf0dbff	-0.010561181550754027
15	0xbf99908daae1fb9e	-0.024965489916663246
16	0x3f8fe70bf45b1e51	0.01557740535225985
17	0xbf912d6419fa790b	-0.01677471550521496
18	0x3fa2719f032d3cf6	0.03602311052110878
19	0xbf81e87955859eff	-0.008744190142081274
20	0xbf846db9d8c8feb2	-0.009974910667664847
21	0x3f873ec9a125ef94	0.011350226621963867
22	0x3f911a39ba971036	0.016701604856067052
23	0x3f405cb9e0b9f390	0.0004993350607517145
24	0xbf252c55aedae460	-0.0001615385621585334
25	0xbf96dacce699917e	-0.0223190322634692
26	0x3f862454e674f7dc	0.010811484606730142
27	0xbf8dac16d9eca687	-0.014488390470052138
28	0x3f9c85351fcc7dfc	0.027851896348805014
29	0xbf94c1a29a5b6ee6	-0.02026990954514831
30	0xbf740423de4d9c7f	-0.004886760817362944
31	0x3f83bf3ba75c11e3	0.009642091793929225
32	0x3f85e3696cf7f2c7	0.010687659872013268
33	0xbf5da0324717b1f6	-0.0018082133286682046
34	0x3f67ee3ec87144a6	0.0029212213735623936
35	0xbf802370450d486e	-0.007880093676849689
36	0x3f58646af99752e3	0.0014887852361102287
37	0xbf909c5f9682e7b7	-0.016221517144664434
38	0x3f9e1aff470912d0	0.029399861059817678
39	0xbf97e80632788d0c	-0.023346039610385325
40	0x3f6046499504d815	0.001986640658425474
41	0x3f8b2cf8af5dfbdd	0.013269369937686843
42	0x3f6828cc0c1426df	0.0029491410538228092
43	0xbf703e55bf154d5f	-0.003965697237919257
44	0x3f87ed35fdc33f48	0.011682912642214341
45	0xbf6347d4b9cad6cf	-0.0023535876083212513
46	0xbf773d8fd6dcd1ee	-0.005673944351475486
47	0xbf92256d745ac0ec	-0.0177208997981219
48	0x3f985fad760b83af	0.023802481012242967
49	0xbf988cef2c4d523b	-0.023975121573430718
50	0x3f6b35937cc6ba71	0.0033214455235886444
51	0x3f6a8aae195e1bc4	0.003239955937661661
52	0x3f7a727547403f5e	0.006456812017873263
53	0xbf6163d6ed67c3e5	-0.002122802524575184
54	0x3f6f20eb204f8510	0.003799876433263301
55	0xbf74ea4ca99f8be9	-0.005106257880444589
56	0x3f33bf5900720c16	0.0003013222016720619
57	0xbf20d43468718b2b	-0.0001283945059383449
58	0x3f9431698aaf6a41	0.01971974286048295
59	0xbf9e30cd383903b4	-0.02948303847938734
60	0xbf5df93f2326ca6c	-0.0018294445586489972
61	0x3f7160a99fa4e0bb	0.004242575256562182
62	0x3f837cb1ccb1e38e	0.009515179690639444
63	0x3f7333e78fb8712e	0.004688171898603861
64	0x3f49f1ae664a670e	0.000791750103036311
65	0xbf4d8d2b464550fe	-0.0009018384267087951
66	0xbf4ecbff99c12d9d	-0.0009398458528350643
67	0xbf7a5ffd1b7d940f	-0.006439198208544119
68	0x3f9284dad690449f	0.01808492598144495
69	0xbf9bddfc6aa03306	-0.027213996894761137
70	0xbf7d95e143add8bb	-0.007223014773322041
71	0x3f748c0b173e238c	0.005016368220716393
72	0x3f85aa1d412ffd19	0.010578373481620095
73	0x3f949ece4382983e	0.02013704573678176
74	0x3f5e39c8b75827a6	0.00184483147802659
75	0xbf7491166dd96e9b	-0.0050211788307838135
76	0x3f53a1f436aba175	0.0011982808015834321
77	0xbf94df70743534cc	-0.02038360318447445
78	0x3f9495b971501c03	0.020102403203079443
79	0xbf9ae1272f49b668	-0.026249515782572536
80	0xbf82f9afdc506ecb	-0.009265302573161624
81	0x3f83e0dea24a9bd5	0.00970624859594508
82	0x3f5900d2bb1d27df	0.0015260751647070343
83	0x3f8f544b7cc2c129	0.015297498459717023
84	0x3f814e807e0f1a1c	0.008450511786475316
85	0xbf8e91fb2702a5ef	-0.014926874282838091
86	0x3f95de1051aa2a82	0.021354918465059665
87	0xbf9afbb22b369a4a	-0.026350768935709014
88	0x3f8abcd16cf84596	0.013055454385752435
89	0xbf934b7753e4698b	-0.018842567916274738
90	0xbf882a77d8635965	-0.011799751559391234
91	0x3f8c0cb9b68a9b57	0.013696146853659092
92	0xbf011cd383fd548f	-3.2639698928229735e-05
93	0x3f88e8df334ba9e2	0.012162917855182923
94	0x3f8d02ed8458b669	0.014165740586658164
95	0xbf6a40e1e4a14f1c	-0.003204766461786591
96	0x3f90e8aef7af78dc	0.016512616984862713
97	0xbf995bb4cdc0589b	-0.024763894136491698
98	0x3f7f014c15c12c9b	0.007569596487949993
99	0xbf98e3f3d004bbb1	-0.024307069369736648
100	0xbf866e7ae757057c	-0.010952911553320226
101	0x3f7a158067652658	0.006368161752399702
102	0xbf18a8dbc2ec2b02	-9.406892125355881e-05
103	0x3f85ad480165954e	0.010584414045932047
104	0x3f897de7951a6e3c	0.012447175252695002
105	0x3f822d562fb07def	0.008875535326352739
106	0x3f88f699dd1e54de	0.012189104137898029
107	0xbf99ead3cc9c3f8f	-0.025309857715057723
108	0x3f81b94481d9831c	0.0086541511656733
109	0xbf974e83ae45213c	-0.022760446082686445
110	0xbf72cf7b253503d1	-0.004592400585637217
111	0x3f821e9621dcb4c8	0.008847401531591706
112	0x3f6220f38470a48d	0.0022129780004616685
113	0x3f93f840c4f3384b	0.019501697560194747
114	0x3f6a6dc22fb7361e	0.0032261650755802803
115	0x3f7db3b0ab7815e7	0.007251443973932826
116	0x3f475ba1d53e1ed3	0.0007128277015775126
117	0xbf938abb0b8eb227	-0.019083902912529063
118	0x3f6b9f90997292e1	0.003371984883033683
119	0xbf95f7322c8ea654	-0.02145079037624094
120	0xbf81210fc2f3e8d1	-0.008363841187464168
121	0x3fa041ff9b9147c7	0.031753528347180864
122	0xbf60db748c0b468b	-0.002057769423438332
123	0x3f9233e4027cf2f2	0.01777607217012451
124	0xbf34a0b23cb3ee38	-0.0003147540234775567
125	0x3f3ffbf9e8970a5e	0.0004880414131457673
126	0xbf521e734f1c0cd3	-0.0011058927597680692
127	0xbf942e36b227e9ca	-0.01970754110696208
128	0xbf66bddf9e7c7dc0	-0.002776085620908225
129	0xbf901114fb36c6d2	-0.015690162499317158
130	0xbf8008fe87cacf9e	-0.007829655188608172
131	0x3f97fb0eef06de4b	0.023418649043121225
132	0x3f737bea26027372	0.004756846086959908
133	0x3f8dfd9a8598da32	0.014643866731700237
134	0x3f51c1328e0eb5ac	0.0010836595249473597
135	0xbf70b289a5a9b040	-0.004076516803802888
136	0x3f873cbaa0b21d03	0.011346300152821792
137	0xbfa0107303376b92	-0.03137549795402274
138	0xbf45cea450a60635	-0.0006655027694224049
139	0xbf87252876dafc4b	-0.011301342131785705
140	0xbf841fbfa3160a27	-0.009826180614941183
141	0x3f8a7efdda471c99	0.012937529777344902
142	0x3f872c6841167762	0.011315168844528937
143	0x3f8a9edab4f3ecf4	0.012998303076975116
144	0x3f8099ba9331ab82	0.008105714432721237
145	0xbf78b3b22d2af7fc	-0.006030746461588517
146	0x3f5f3abb5c9b7d98	0.0019060926155630483
147	0xbf9eb3413e730da7	-0.02998067802105955
148	0x3f542eeb7805fd14	0.0012318896770862663
149	0xbf65bb65e6a29ac6	-0.002652834916335808
150	0xbf88db6ff911b52f	-0.012137293613899118
151	0x3f858bc74d1b1c0e	0.010520512619576674
152	0x3f959140be7f3fa3	0.021061908366220582
153	0x3f9086d1d8185654	0.016139296354671664
154	0x3f845e0cbecf69c6	0.009945010731759473
155	0xbf879dd130e0a487	-0.011531481079219098
156	0xbf85e78c730ff750	-0.01069555021421889
157	0xbf9acdf6a0289f9d	-0.02617631294756927
158	0x3f7d37cd4c8fe494	0.007133295011038449
159	0xbf71724a79a350fe	-0.0042593869386176025
160	0xbf89f6ab825acbe8	-0.012677516856774276
161	0x3f83b15836a0282b	0.009615601698914919
162	0x3f8a30828ee53536	0.012787837968654441
163	0x3f89a7592d2d8951	0.012526222888202073
164	0x3f87c28027356730	0.011601449200202646
165	0xbf8799fdbd281d4c	-0.011524183592895774
166	0xbf817c24d90c4f77	-0.00853756701830098
167	0xbf9751ebc13d1c7d	-0.022773440999369832
168	0x3f843a04d9b0dfd6	0.009876287358665008
169	0xbf4d28a87d035373	-0.0008898565957006069
170	0xbf842f63c9486b27	-0.009856013851324242
171	0x3f73ea256fa36e5a	0.004861971125332676
172	0x3f5dad717ad7b316	0.0018113716317841914
173	0x3f8008dbec7bd71e	0.007829397348796226
174	0x3f8808fef259b1e0	0.01173590828985821
175	0xbf6571d985855222	-0.002617764326865905
176	0xbf7506408d6d874d	-0.005132915647523562
177	0xbf95089806a24155	-0.020540595440764992
178	0x3f77c924dd803fc9	0.005807060246311787
179	0x3f78fb9ece435ae8	0.006099338850808357
180	0xbf8b6cbe91a47c61	-0.013391007251412458
181	0x3f637e141bb1ca92	0.0023794548738405663
182	0xbf8c0151e0131066	-0.013674392367086518
183	0x3f9813281cee9ea7	0.02351057697856498
184	0x3f88d9f0e31b79ab	0.012134439402356664
185	0xbf706f4966db8f96	-0.004012381292088826
186	0x3f7845d9eb63046e	0.005925990341155358
187	0xbf932c5dbfa63705	-0.01872393114313466
188	0x3f5d2d31cb3d2da2	0.0017807947414948196
189	0x3f70a5d787312c98	0.004064409166924986
190	0xbf92340a64fa093f	-0.01777664414704216
191	0x3f7cc2a00a523636	0.007021546514022916
192	0xbf87b5d46132a9d1	-0.01157728120445692
193	0x3f94dc9edd214e34	0.02037285065337198
194	0x3f8bbded4d1ef090	0.013545850673715415
195	0x3f57a48fcdc4fc1b	0.001443043168435804
196	0x3f6dc6de601f18a7	0.003634867026423089
197	0xbf89fe9a0a047126	-0.012692645483689601
198	0x3f268d96d5910dfe	0.00017206636656129365
199	0xbf70f6d177897dd4	-0.004141634207001716
200	0xbf8c27a3786bea2a	-0.013747479546045122
201	0x3f8f2ef8760298bd	0.015226307965644609
202	0xbf701fa7dde787a0	-0.003936439256422647
203	0x3f8c90dc5be0bdb0	0.013948175004854985
204	0x3f80257adf3515cf	0.007883987366436166
205	0x3f754d9e00811161	0.005200974650567098
206	0x3f26c1071a93265c	0.00017359935490039973
207	0xbf95dc7f5803b853	-0.021348943469029113
208	0x3f7983d510433941	0.006229240683934657
209	0xbf83b70cb4efbed2	-0.009626483222717228
210	0xbf8e5371b3c5e204	-0.01480759458421322
211	0x3f8bfd8d121688fb	0.013667204012396619
212	0x3f65fbb9a0129640	0.0026835084432430822
213	0x3f815651311e59e9	0.008465418158988451
214	0x3f775163161a9e57	0.005692851120023676
215	0x3f8755610e7f2ea4	0.011393316512019531
216	0xbf78f3c75937d676	-0.006091860489950576
217	0xbf94089f21f06b14	-0.01956413883827242
218	0x3f8ae2d113df2e5d	0.013127931040705915
219	0xbf8dd3ef55c86d04	-0.014564389996897471
220	0xbf8875867918af1e	-0.011942911692208787
221	0x3f85203d056c3fe2	0.010315396049492113
222	0x3f663cb8e1569073	0.0027145014707504133
223	0x3f922effcb7cbca9	0.017757412714840246
224	0x3f8026b63b187513	0.007886336973621988
225	0x3f78e5c562c50cb7	0.006078501737934497
226	0xbf8230f351776cac	-0.008882428096447313
227	0xbf91f0f244696f2b	-0.017520699906852826
228	0x3f86584d6b85b63e	0.010910611003704603
229	0xbf91baeb6abbf326	-0.017314604177033698
230	0xbf867f46e36ea522	-0.010984948936157372
231	0x3f95039e124c1bd3	0.02052161204030851
232	0xbf5bd5cac63c0a46	-0.0016989212244317305
233	0x3fa1ec1706ef8bd2	0.035004348370214836
234	0xbf4c61b5741f6c89	-0.00086613998450548
235	0xbedf49e07f826bc0	-7.459779219366519e-06
236	0xbf7ca234c795f3cf	-0.006990629358708269
237	0xbf8952befbae3ee9	-0.012364856773074933
238	0x3f8490b09458b673	0.010041598822762432
239	0xbfa0b8385069c1ff	-0.032655486885122535
240	0xbf8959f9f780c91f	-0.0123786476761763
241	0x3f909914907ce8d9	0.01620895511516882
242	0x3f4e3c89c7450bbf	0.0009227440591888998
243	0x3fa19773909dac6b	0.03435860767680129
244	0xbf811a4a55ddd252	-0.008350926156461078
245	0xbf529719ed9592bd	-0.0011346581653352416
246	0xbf71795f499a2cbd	-0.004266140190917142
247	0xbf679004ffff822a	-0.0028762910514930256
248	0x3f88e77c5de13ea2	0.012160274138437292
249	0xbfa1bcbec8e71165	-0.034643137001270564
250	0xbf8b6ad65341a1ab	-0.013387369552405234
251	0x3f84b44e1eed10a7	0.0101095297992589
252	0xbf749ef257ae61ea	-0.005034395838173536
253	0x3fa097636182eb18	0.032405000355956115
254	0x3f57e32c60216b66	0.0014579709391202233
255	0xbf82fe9c5ccd9171	-0.009274694044230288
