saved_models/svm_best_model.pt (torch, 246571 bytes, 1 tensors)

W f8 [3073, 10]
0	0x3f78f77c8860f9d0	0.006095396476722262
1	0xbf58900ca4865caf	-0.0014991877997994443
2	0xbf223313aa816b3a	-0.0001388513094323309
3	0xbf821d53c358b5f9	-0.0088449996938733
4	0xbf8927ff7445d288	-0.012283321128714123
5	0xbf88748e1c6e47eb	-0.011941061251295756
6	0x3f75cd8faa1c0eb5	0.0053229915517964315
7	0xbf4853e90ac87ed8	-0.0007424247647271577
8	0x3f9440a4465c6b88	0.01977783851098594
9	0x3f716b027e76e8be	0.004252443067736587
10	0x3f5dc06ef41f7b9b	0.0018158992320349346
11	0x3f5a13475ef9e753	0.0015915104849270792
12	0x3f7bd4dee0e36df0	0.006794806117081262
13	0xbf682e612b90b4ca	-0.0029518030028357943
14	0xbf75a2b00940f14f	-0.005282104150009139
15	0xbf93fe1dc8a766b2	-0.01952406441873817
16	0x3f79f91f48322ed3	0.006341097064374873
17	0xbf6e1589afe2f3f3	-0.003672379417450683
18	0x3f8ca567f7415bb3	0.013987362130292036
19	0x3f4d705b0a355d76	0.0008984035998009083
20	0xbf58b1e7b10a9d4d	-0.001507259618088802
21	0x3f6efb52eb7cadba	0.00378194995200484
22	0x3f85b0e2d642ac1e	0.01059128967638939
23	0xbf54055deb1007a2	-0.001221982686047764
24	0xbf60a180bc473cec	-0.002030135570954541
25	0xbf909000e27cfc3a	-0.016174329589599724
26	0x3f763bb1996dbe29	0.005428022143731983
27	0xbf63906e052b56c5	-0.0023882054168592203
28	0x3f829bc36a153219	0.009086157488718037
29	0xbf76caebde87826b	-0.005564614643362202
30	0xbf4fea42c98239c9	-0.0009739709958170247
31	0x3f6c0bc2ea71265a	0.003423577017689178
32	0x3f817a43432f1ed5	0.008533978927416733
33	0xbf4acd2e6356c2ab	-0.0008179165367235471
34	0x3f404357c958bead	0.0004963091511793382
35	0xbf806b9461cdf869	-0.008017691836126955
36	0x3f23b5cce31ed5e6	0.00015037656845399912
37	0xbf703e4900357f17	-0.003965649756849896
38	0x3f84f9f3e1dee067	0.01024237187435535
39	0xbf8295da2e473384	-0.009074883019730036
40	0x3f5ae2ee3d3535b2	0.0016410185388225748
41	0x3f7716018945a2b2	0.005636220932821944
42	0x3f75c40c82848283	0.005313919893780497
43	0xbf3864af6ec1ebfe	-0.0003722122480735445
44	0x3f6862af16a88473	0.002976743669265641
45	0xbf7c990d892b9e5d	-0.006981900095275853
46	0xbf6d7de17c29d0de	-0.0036000637058411908
47	0xbf78a910e160ddef	-0.006020608843804605
48	0x3f84208d1fccc961	0.009827711613614456
49	0xbf813e26552fa499	-0.008419322466539024
50	0x3f688331b40619b9	0.0029922457471826783
51	0xbf24df4a963bfcc8	-0.00015924249156993296
52	0x3f776e9d9db02154	0.005720725715044079
53	0xbf46d350efb8180a	-0.0006965775677947328
54	0x3f5167666efde35a	0.0010622501685857073
55	0xbf7d9fdadbd8f960	-0.007232527653796644
56	0x3f4ea045d708d5d4	0.0009346333518524493
57	0x3f438c17b3410aae	0.0005965343211829699
58	0x3f8273afd60c4b6f	0.009009717673995358
59	0xbf890baf327542c3	-0.01222931740508793
60	0x3f53844e103d0328	0.0011912119234269245
61	0xbf34e4595f17f07a	-0.0003187864486731206
62	0x3f79181f20333fae	0.006126519761167444
63	0x3f62565ea00cab13	0.0022384498737627683
64	0x3f5ef543cf1242a4	0.0018895303913134898
65	0xbf756adbcf0bb35f	-0.005228861454025984
66	0xbf4d6215f0d0d2b9	-0.0008967024929292445
67	0xbf604bb21ec7f361	-0.0019892195616634666
68	0x3f803a9dd3401cc9	0.00792430211005381
69	0xbf8666e59756bc18	-0.010938447648042568
70	0xbf384069df1fbf8d	-0.0003700502849133196
71	0x3f4374c34a9356e4	0.000593753201566041
72	0x3f7c96529f13acf3	0.00697929643613836
73	0x3f850fc7a09acbd5	0.010284003819242141
74	0x3f60bc4e5a3789cd	0.0020429163284785058
75	0xbf7edc510fb976ac	-0.007534329076944662
76	0xbf5319eec5199b2b	-0.0011658508050460075
77	0xbf80fecb2e107e87	-0.00829848036124693
78	0x3f81d53d9a822ce6	0.008707505490994593
79	0xbf87045afa4f00de	-0.011238775981724233
80	0xbf595a62bb2c5d70	-0.0015474285289139543
81	0x3f70d72dd9c61a55	0.004111460785117223
82	0x3f6e83b7e0dc56a4	0.0037249175428638193
83	0x3f80894dc7b8fdef	0.008074386270094684
84	0x3f6720d77125447b	0.002823277268512001
85	0xbf859bdd4fed39fe	-0.010551194192569998
86	0x3f7cfa24dd632c2d	0.00707449341116288
87	0xbf87abfca3db3b77	-0.011558507681369552
88	0x3f776465e745c4f6	0.005710981426419117
89	0xbf8016fc2fb22a59	-0.007856340604367395
90	0xbf631aaae75308a8	-0.0023320520363948223
91	0x3f73f3870bbfba68	0.004870917819046562
92	0x3f4891b08574cc72	0.0007497894211269242
93	0x3f7a48dcd59202f5	0.006417143472504651
94	0x3f71d0dd010f1ea3	0.004349578187379829
95	0xbf6e5319a07341cd	-0.0037017345926886104
96	0x3f76e267b706e019	0.005587010513799861
97	0xbf86c109f0f633e3	-0.011110379854267499
98	0x3f76322530f094d9	0.005418916013728758
99	0xbf84fe331d79f451	-0.010250472390220507
100	0xbf600f2321af67e6	-0.0019603429950452054
101	0x3f59c93dbc2f5ae7	0.0015738585359394376
102	0x3f43bb17f02cde4f	0.0006021372686068701
103	0x3f77d7c6e8061a0b	0.005821015336897615
104	0x3f749b6197e91995	0.005030995582791316
105	0x3f69f7989185d99b	0.0031698207714569555
106	0x3f6b7a212ea03edc	0.0033541343773392084
107	0xbf88b13a52676a00	-0.01205678523995335
108	0x3f754b9056f210fc	0.0051990164057580356
109	0xbf85fadc7e3762c8	-0.01073238620931373
110	0x3f525f29049dbcbf	0.0011213207785337046
111	0x3f62a0084d71d986	0.0022735750349582333
112	0x3f5c6cd76f3def27	0.0017349342205922964
113	0x3f8378bd4ef941a2	0.009507636044106264
114	0x3f4c469e94035931	0.0008629106814861729
115	0x3f6315b96f380c4e	0.0023296949163991503
116	0xbf5348aa13cba811	-0.0011769925032987275
117	0xbf8330272a9466c3	-0.009369188296250447
118	0x3f6fac2e478959ef	0.0038662818808845516
119	0xbf86d77c59e99ee4	-0.011153193944849212
120	0x3f4855f8f7fe528e	0.0007426705997085213
121	0x3f8aae4b5af96279	0.013027752603350639
122	0x3f2aed985afd99fc	0.00020544514472504982
123	0x3f7daeaac34d8ae3	0.007246653597436678
124	0xbf5e8e0ea080b38b	-0.0018649237481540317
125	0xbf605b9bca0e6a74	-0.001996807361547776
126	0xbf5738638a0f51a2	-0.0014172527373733442
127	0xbf84369ba06457cd	-0.009869781334184946
128	0x3f54e084f56f1bdd	0.0012742327141823586
129	0xbf7e16fa5dafa9da	-0.007346132270848982
130	0x3f42dd15146e7fa5	0.000575671475292684
131	0x3f83a9d8b37e59ed	0.009601300218304376
132	0x3f6d575cfa255920	0.0035816970786683028
133	0x3f7606baa116cbe2	0.0053775110440481295
134	0xbf2ee6dcfe104dbd	-0.0002357620969922601
135	0xbf6b3cdef0ef3aa5	-0.0033249239272444436
136	0x3f70a9de946a5bb7	0.004068250133648136
137	0xbf8d67591bbe9f05	-0.014357277068327354
138	0x3f60719d5b90be2c	0.0020073007003913648
139	0xbf7ddf15b9d9fcd3	-0.007292828433150339
140	0xbf5d095a5ed8695a	-0.0017722494625390301
141	0x3f6d7fb5815c0b86	0.0036009354615784165
142	0x3f7e930e853cda59	0.007464462967439711
143	0x3f77e6adfccd4a2e	0.005835227621747081
144	0x3f75cbfa03cba87c	0.005321480389037455
145	0xbf734a4471dae8aa	-0.004709498750964306
146	0xbf53508907719480	-0.001178869073350769
147	0xbf8816a863deb2a6	-0.011761966274059187
148	0x3f494cd5a4c3f910	0.0007720988446917893
149	0xbf6d37d645c8411e	-0.003566664219995754
150	0xbf714308b18af815	-0.004214319190110079
151	0x3f5791dbc6587b9d	0.0014385839689407883
152	0x3f86dcd6c51b7cd4	0.011163404360046071
153	0x3f83285853813796	0.009354295776713244
154	0x3f7ddb96d4ac79e9	0.007289494688647904
155	0xbf7d74311d2f09a0	-0.007190887309607069
156	0xbf7c278c213f5340	-0.0068736528227944516
157	0xbf844d273b0aa5cf	-0.009912783135706342
158	0x3f6529e6ec6ac1d7	0.00258345701453087
159	0xbf6dcc9720ea84b5	-0.0036375953416870285
160	0xbf754535147164ae	-0.005192954390701816
161	0x3f5ba9c046cd1fab	0.0016884210301259899
162	0x3f7a3642514dc1b0	0.00639940171537072
163	0x3f7a1a9759711363	0.006373015602609697
164	0x3f7a7487a4b45001	0.006458787781657095
165	0xbf7868d40378f91f	-0.005959346940981796
166	0xbf71747465b08166	-0.004261450459154359
167	0xbf82e5730966b6d1	-0.009226702427294427
168	0x3f740a838d1cfe7f	0.004892839309661333
169	0xbf531c2ad3b5ff59	-0.0011663835747128452
170	0xbf73c46f871368db	-0.004826007513850618
171	0xbf1662628b3721ae	-8.538938964542414e-05
172	0x3f6198d7bbe4a99b	0.0021480763963570132
173	0x3f5916a60458b24a	0.001531278730349988
174	0x3f72fb8badad69ba	0.004634423846108177
175	0xbf5b2afb23d07316	-0.0016581966913299987
176	0xbf4aeba5c416abc8	-0.0008215484050898498
177	0xbf81d819d03daef9	-0.008712960879811759
178	0x3f6f3f8ba2f16d08	0.0038144805217094103
179	0x3f70463cc4e6fd46	0.003973233584871954
180	0xbf765928a18e96bd	-0.005456122126735683
181	0xbf67bf2a5d7a1e8f	-0.002898771995947964
182	0xbf719ff68e324edb	-0.004302943331953658
183	0x3f8455c303e2ba55	0.009929202610092927
184	0x3f747df76db975c7	0.0050029435329554455
185	0xbf3826379cb1ee42	-0.0003684888622001761
186	0x3f680d210f3cd3d6	0.0029359479612147505
187	0xbf80875aa3c16872	-0.008070667383595718
188	0x3f48c3d2a0a1afe9	0.0007557657675198978
189	0x3f6433c6794b9e09	0.002466094631347952
190	0xbf76c3947380d8b9	-0.005557613265457722
191	0x3eaf753f10fc7200	9.375212659288126e-07
192	0xbf711f635055ba95	-0.00418032450157448
193	0x3f83626cc5d9ac7e	0.009465074336921338
194	0x3f7898bd655908b0	0.006005039050764591
195	0x3f52357e6f11d270	0.001111386747905698
196	0x3f2c921f60f19987	0.00021797783890349314
197	0xbf73976d6b3c8d06	-0.004783084313916724
198	0x3f33807b1a6f4fbc	0.00029757504893023943
199	0xbf65175d4b1f40fe	-0.00257461758972266
200	0xbf6b0176134ba297	-0.0032965952071786864
201	0x3f6c9f1155dc6f60	0.003493818147843372
202	0xbf5a7e77e93622d7	-0.0016170664792715583
203	0x3f748d86f1f717ec	0.005017783288570481
204	0x3f672f906fe18a2a	0.0028302975688785552
205	0x3f5baf017e7c895d	0.001689673861570449
206	0xbf4c7787b1790c51	-0.0008687412800515525
207	0xbf8073265f160d81	-0.008032130982207121
208	0x3f74ce4ca9a750b1	0.005079555000026812
209	0xbf7195b78850c3ff	-0.004293171809920614
210	0xbf770b2fe665e7d8	-0.005625903233857664
211	0x3f71b0c90fcedcf9	0.004318986318075029
212	0x3f50d75b60daee39	0.0010279075972182818
213	0x3f69ac9d5f8a0198	0.003134066934137713
214	0x3f5ff7aa42a68908	0.0019511378000989805
215	0x3f73f34e57fab799	0.004870706586798245
216	0xbf73b7c4d55e6aba	-0.004813927536725765
217	0xbf807bebd1862326	-0.008048860866226425
218	0x3f8332bf85b04e2b	0.009374138133387685
219	0xbf79561c7c85d108	-0.006185637736383372
220	0xbf7a8926ef97c386	-0.0064784546789135086
221	0x3f730a7edd84b8d4	0.0046486812282593055
222	0x3f4c789ee0c451c2	0.0008688712855780478
223	0x3f7d874b0df3337c	0.007209103757486509
224	0x3f66efda539d16d7	0.0027999176208223053
225	0x3f66128cc8b4ab9d	0.002694392174495032
226	0xbf75192523afb50e	-0.005150933337956033
227	0xbf7c8677fd614772	-0.006964176855108183
228	0x3f7ecdc8027188dd	0.0075204670784805
229	0xbf7d447fff2ed056	-0.00714540480378297
230	0xbf7513482ffc7cda	-0.005145341856205488
231	0x3f7866711f5746e6	0.005957071194147656
232	0xbf51fb630513656f	-0.00109753293900491
233	0x3f900631ee6f1e11	0.015648632219180728
234	0xbeadd41d21602b40	-8.889606444307318e-07
235	0xbf5d0c8b83606536	-0.0017730104859821744
236	0xbf763f4ecd2903a5	-0.005431468790050885
237	0xbf6a22717ff5844d	-0.0031902519983053935
238	0x3f7fc75dfa7dd751	0.007758490661094645
239	0xbf8a10787e773cfc	-0.012726727828435085
240	0xbf7219daef198042	-0.004419188700552525
241	0x3f6786dd5eea288e	0.002871925701872397
242	0x3f4d22573f094afd	0.000889103508664085
243	0x3f9133cc07e4ee25	0.01679915235693676
244	0xbf66a6c9be44a931	-0.002765077619320121
245	0xbf6e324adeaa059d	-0.0036860906887461035
246	0xbf785a2cb8c3965b	-0.005945372289919949
247	0x3f57e375d15ab9e9	0.0014580393375741524
248	0x3f8038d1e4d94d3e	0.007920875355159947
249	0xbf8adff281013b54	-0.013122458040155806
250	0xbf766994d0793d61	-0.005471783929876879
251	0x3f5d18351d573fe8	0.0017757910439861694
252	0xbf549344444ad0c0	-0.0012558142345087536
253	0x3f90602ead5ae7c9	0.015991906481509752
254	0x3f22cf7abb24eb32	0.00014351247006935127
255	0xbf7dbbf98f5c67f5	-0.007259344905628841
