saved_models/transformer.pt (torch, 246075 bytes, 195 tensors)

emb_layer.weight f4 [16, 36]
0	0xbf87503b	-1.0571359
1	0x3ef9a46f	0.48758265
2	0xbe7058f3	-0.23471431
3	0xbecb37d5	-0.39691034
4	0x3f01afca	0.5065886
5	0x3fb5190a	1.4148266
6	0x3e2c0860	0.1680007
7	0x3fd02559	1.6261398
8	0x3f1200bb	0.57032365
9	0x3f505062	0.81372654
10	0x3f277836	0.654178
11	0xbf1d3e15	-0.61422855
12	0xbf87ea40	-1.0618362
13	0xbff80255	-1.9375712
14	0x3eeab8ff	0.45844266
15	0xbebadeb0	-0.36498022
16	0xbfc0a163	-1.5049251
17	0x3f347f71	0.7050696
18	0xbe3f597b	-0.18686478
19	0x3f1f2c51	0.62176996
20	0xbd9bab03	-0.07600977
21	0x3e9a7547	0.301676
22	0x3f18812b	0.59572095
23	0xbf8c5edb	-1.0966448
24	0x3f36c244	0.71390176
25	0xbd2eabee	-0.042644434
26	0xbfd80b5f	-1.687847
27	0xc00d2900	-2.2056274
28	0xbe96e9f8	-0.2947538
29	0x3f7655c0	0.96224594
30	0x3fb51335	1.4146487
31	0x3f71d0ed	0.9445942
32	0xbe143094	-0.14471656
33	0x3f0e63b9	0.55620915
34	0x3f0f2364	0.55913377
35	0xbfb76db2	-1.4330351
36	0xc02c726f	-2.6944845
37	0xbfa2af71	-1.270979
38	0xbe7b90b6	-0.24566922
39	0x3fcb6925	1.5891463
40	0xc003fab8	-2.0621777
41	0x3fd6df3f	1.6786879
42	0x3e7e7c93	0.24852209
43	0x3ecb9d11	0.3976827
44	0x3f396697	0.72422165
45	0xbf4699f1	-0.77578646
46	0x3ece6a74	0.40315592
47	0xbec7b385	-0.3900415
48	0xbf5bb0cf	-0.85816664
49	0x3da42dc8	0.080165446
50	0xbf30de20	-0.69088936
51	0xbf01bd33	-0.5067932
52	0x3d817230	0.06320608
53	0xbf8d40ea	-1.1035435
54	0xbec2414c	-0.37940443
55	0x3f1d2607	0.6138615
56	0x3fd95cdf	1.6981467
57	0xbf6b4ee7	-0.9191727
58	0xbed8311d	-0.4222497
59	0xbf3a830f	-0.7285623
60	0x401b722c	2.4288435
61	0x3f12f418	0.5740371
62	0xbf7572e6	-0.95878446
63	0x3d75036f	0.059817728
64	0x3ea75cc1	0.32687953
65	0xbf1bfa01	-0.6092835
66	0x3e23b6f4	0.1598776
67	0xbf14247b	-0.57868165
68	0xbee9245a	-0.45535547
69	0xbf59c41d	-0.8506487
70	0xbfd0c516	-1.6310146
71	0xbf8593a1	-1.0435678
72	0xbe686031	-0.22692944
73	0xbf371d56	-0.7152914
74	0x3e880d97	0.26572868
75	0xc02698a8	-2.6030674
76	0x3ed8c229	0.42335632
77	0x3ed2c9bc	0.41169536
78	0x3e855584	0.26041806
79	0x3f07a4a5	0.529856
80	0x3f6d6705	0.9273532
81	0xbea1131d	-0.31459895
82	0x3f9d8d57	1.2308758
83	0xbf023253	-0.5085804
84	0x3e56b9bb	0.20969288
85	0x3f9c71b1	1.2222196
86	0x3f8a15d3	1.078791
87	0xbdb6bc05	-0.08922581
88	0xbfa32e1c	-1.2748446
89	0xbf92e0c0	-1.1474838
90	0xbd95a4a0	-0.0730679
91	0xbe8eb9b2	-0.2787605
92	0x3e652fad	0.22381468
93	0x3f50c959	0.8155723
94	0x3c56a5fd	0.013101098
95	0x3fcb7f69	1.5898257
96	0x3f45be05	0.7724307
97	0x3b90b653	0.004416266
98	0x3f02035c	0.50786376
99	0xc002e831	-2.0454218
100	0xbcdc0343	-0.026857024
101	0x3eee1e34	0.46507418
102	0xbf5eaf56	-0.8698629
103	0x3f27eff7	0.6560053
104	0x3f0d1210	0.55105686
105	0xbf0fb842	-0.5614053
106	0xbf6689e1	-0.90054137
107	0xbefa2682	-0.48857504
108	0xbf9cd1be	-1.2251508
109	0xbdf35e02	-0.11883165
110	0x3f9659a1	1.1746103
111	0x3e5d1901	0.2159157
112	0x3eb6d5e2	0.35710055
113	0x3fc6a20e	1.5518205
114	0x3ea37184	0.31922543
115	0x3f8faaf6	1.1224048
116	0x3eb7da12	0.35908562
117	0xbdb6fad4	-0.089345604
118	0x3e2fb042	0.17157081
119	0x3eee2d10	0.46518755
120	0x3f51f08a	0.8200766
121	0x3eeb6de3	0.45982274
122	0xbe592f12	-0.21209362
123	0xbdf4207e	-0.1192026
124	0xbe918981	-0.2842522
125	0xbee11c5a	-0.43966943
126	0x3f5361af	0.8257093
127	0xbf0bd7a7	-0.54625934
128	0xbea8cae8	-0.32967305
129	0xc007aa2f	-2.1197622
130	0xbf89bc4e	-1.0760591
131	0x3f7fa354	0.99858594
132	0xbed0adf3	-0.40757713
133	0x3f8f7b43	1.1209491
134	0x3f9e098e	1.2346666
135	0x3fb63d80	1.4237518
136	0xbeb5e6b7	-0.35527584
137	0xbcb01c0c	-0.021497749
138	0xbf1ff037	-0.62475914
139	0xbfa9a205	-1.325257
140	0x3f51df81	0.81981665
141	0xbf6c3093	-0.9226162
142	0x3e2a4dc1	0.16631223
143	0xbfaf88bf	-1.3713607
144	0x3f61d950	0.8822222
145	0xbf3b8fb8	-0.7326617
146	0x3f131317	0.57451004
147	0xbeafe1b4	-0.34351885
148	0x3fa2adc1	1.2709275
149	0xbf759848	-0.9593549
150	0x3c918a41	0.01776612
151	0x3e811c1c	0.25216758
152	0x3d95353c	0.07285544
153	0x3f19413d	0.5986517
154	0xbea83ed5	-0.32860437
155	0xbfca6382	-1.5811617
156	0x3f8a0606	1.0783088
157	0xbeb86b3b	-0.3601931
158	0xbf866cb9	-1.050193
159	0x3ef2d6ad	0.4742941
160	0xbeb87ed3	-0.3603426
161	0xc0062feb	-2.0966747
162	0x3f083598	0.5320678
163	0x3fa4c9ae	1.2874048
164	0x3e84ed51	0.25962308
165	0x3d48202c	0.048858806
166	0x3f17cdfa	0.5929867
167	0x3f9decb6	1.2337863
168	0x3ec29f3b	0.38012108
169	0x3f87f7ec	1.0622535
170	0x3f8262dd	1.0186421
171	0x3fcf16db	1.617885
172	0xbf3585c3	-0.7090723
173	0x3f6b57d4	0.9193089
174	0xbe4cbc19	-0.19993629
175	0xbfea65eb	-1.8312353
176	0x3d07e1d6	0.03317436
177	0xbf9a4a5c	-1.2053943
178	0xbf5d0b5d	-0.86345464
179	0xbf82a104	-1.0205388
180	0x3fe7773d	1.8083264
181	0xbfc199f6	-1.512511
182	0x3f97eec4	1.186974
183	0x3dc2144c	0.094765276
184	0x3eca4406	0.39505023
185	0xbd83dd13	-0.06438651
186	0xbfc18121	-1.5117532
187	0xbeb81eb0	-0.35960913
188	0x3f11f789	0.57018334
189	0xbc8384ea	-0.01605459
190	0xbf39d6b1	-0.7259322
191	0x3ea55a51	0.32295468
192	0xbfa51a0a	-1.2898571
193	0x3f840947	1.0315331
194	0xbfc1cc99	-1.5140563
195	0xbeff8b07	-0.49910757
196	0xbf014096	-0.50489175
197	0x3ed4626a	0.41481334
198	0x3ddd5c11	0.10808576
199	0x3f5a1994	0.8519528
200	0xbe21d374	-0.15803319
201	0xbf4029f6	-0.7506403
202	0xbf9f2445	-1.2432944
203	0xbf9c6b4d	-1.2220246
204	0x3e7712a4	0.24128205
205	0x3ea07730	0.31340933
206	0x3fd723f0	1.6807842
207	0xbde4b7d5	-0.11167876
208	0xbdf860b1	-0.121278174
209	0xbe828100	-0.25489044
210	0x3edc9c57	0.43088028
211	0xbf029c07	-0.5101933
212	0x3e892a8d	0.26790276
213	0xbf08ab0d	-0.53386
214	0x3f6555d0	0.89584064
215	0xbedc1cdb	-0.42990765
216	0xbed454ad	-0.41470852
217	0xbe3e6deb	-0.18596618
218	0xbf06bfe5	-0.5263656
219	0x3fa428b8	1.2824926
220	0x3fa912d9	1.3208877
221	0x3f0796ab	0.52964276
222	0xbc49cc2e	-0.012316747
223	0x3ef36750	0.4753976
224	0xbeeb80a6	-0.45996588
225	0x3ea58350	0.32326746
226	0x3ec321ea	0.38111812
227	0x3fa09b73	1.2547439
228	0x3f631f69	0.88719803
229	0x3f5462cf	0.8296327
230	0xbfba827d	-1.4571072
231	0x3e81f56b	0.25382552
232	0x3fbf76d5	1.495814
233	0x3f2bf8bb	0.6717641
234	0xbfc0cd8d	-1.5062729
235	0x3f7127fb	0.9420163
236	0xbe6701fe	-0.22559354
237	0x3e3d16d7	0.18465744
238	0xbe0650e4	-0.13116795
239	0xbf328d7f	-0.69747156
240	0xbdc2d69a	-0.09513588
241	0xbe2a0d2c	-0.16606587
242	0x3e382c72	0.17985705
243	0x3f8ab384	1.0836034
244	0x3f92b18f	1.1460437
245	0xbf4dc0f4	-0.8037255
246	0x3d85373b	0.06504675
247	0xbfbd4fea	-1.4790013
248	0xbfba395a	-1.4548752
249	0xbe28a2f5	-0.16468413
250	0x3ef91161	0.48646072
251	0xbe859d8c	-0.2609676
252	0x3ede3d1b	0.43405995
253	0xbefaa1c5	-0.48951545
254	0x3f1c940b	0.61163396
255	0x3f1ff2c3	0.624798

encoder.layers.0.multi_head_blocks.multi_head.0.q.weight f4 [9, 36]
0	0x3ea2fe23	0.31834516
1	0x3eff993c	0.49921596
2	0x3eb0489d	0.344304
3	0x3ec1df94	0.3786589
4	0xbbb0e17e	-0.0053979745
5	0x3d0a42e9	0.033755217
6	0xbbad87c8	-0.0052957274
7	0x3efddb45	0.49581352
8	0x3e4d225e	0.20032641
9	0xbe8bdb1b	-0.27315602
10	0xbd16c2d4	-0.036806896
11	0x3f03ae51	0.5143786
12	0xbeb044bc	-0.3442744
13	0x3e886cae	0.26645416
14	0x3d84efa1	0.06491018
15	0xbd3d2c6c	-0.046184942
16	0x3b6422ed	0.0034810856
17	0x3eebd9dd	0.46064654
18	0x3f556657	0.83359283
19	0x3eeee988	0.46662545
20	0xbbe711b5	-0.0070516714
21	0xbd8048fe	-0.06263922
22	0x3f044cbd	0.51679593
23	0xbdbed2cd	-0.09317551
24	0x3e259481	0.16169931
25	0xbdf0ccea	-0.11757834
26	0x3e6b081b	0.2295231
27	0xbe1e32f7	-0.15449129
28	0xbeb904e8	-0.36136556
29	0x3eaa3049	0.33239964
30	0xbed837b4	-0.42229998
31	0x39223f8f	0.00015473201
32	0x3d4a5924	0.049401417
33	0xbd25d5d2	-0.040487118
34	0x3d111211	0.03541762
35	0x3e918a1b	0.2842568
36	0xbdb50ea5	-0.08840684
37	0x3ec85149	0.39124516
38	0x3d110d53	0.035413098
39	0x3ef05b23	0.46944532
40	0x3dc79c56	0.097466156
41	0xbea7b4ac	-0.3275503
42	0xbe5e53d4	-0.21711665
43	0xbdde0336	-0.10840456
44	0x3d85f59e	0.065409884
45	0xbcdd547c	-0.027017824
46	0x3f05b651	0.5223132
47	0x3cb1a3d4	0.021684565
48	0xbef816ea	-0.48454982
49	0x3da6815f	0.08130144
50	0x3d95d8a8	0.073167145
51	0xbcc26f12	-0.023734603
52	0xbee64952	-0.44977814
53	0x3f1fed2d	0.62471277
54	0x3e2138df	0.15744351
55	0xbdcfd10e	-0.10147296
56	0x3dccc081	0.09997655
57	0xbd9ae47d	-0.07563112
58	0x3d352171	0.044221345
59	0xbee6e124	-0.45093644
60	0x3e4b90a0	0.19879389
61	0xbe3dbabd	-0.18528266
62	0xbecb3fa6	-0.39696997
63	0xbe758590	-0.23976731
64	0xbd3ef89d	-0.046623815
65	0xbcaf40fe	-0.021393295
66	0x3d66e524	0.05637087
67	0x3cf8cf81	0.030372383
68	0xbe5d1c37	-0.21592794
69	0x3ea7f078	0.3280065
70	0xbdaa7893	-0.08323779
71	0x3e9b7893	0.30365428
72	0x3e440fcf	0.19146655
73	0xbdc856de	-0.097821936
74	0x3ef30423	0.47464094
75	0xbf21e26e	-0.6323613
76	0x3e04f457	0.12983833
77	0x3ee4f18d	0.4471554
78	0xbe92e773	-0.28692207
79	0xbe79637b	-0.24354355
80	0xbd1dd1b2	-0.03853006
81	0x3e99e21c	0.3005532
82	0x3e836826	0.25665396
83	0xbece2f67	-0.4027054
84	0x3e0fb69c	0.14034504
85	0xbda2459b	-0.079234324
86	0xbd4d3361	-0.050097827
87	0xbe579fcd	-0.21057053
88	0xbe392f73	-0.18084507
89	0xbe8ec84b	-0.27887186
90	0x3e8d3754	0.27581275
91	0xbea8c534	-0.32962954
92	0xbda627ab	-0.08113035
93	0xbe4c84cc	-0.19972533
94	0xbdd9ae9e	-0.10629009
95	0x3d96d1e1	0.0736425
96	0x3ed667c6	0.41876048
97	0x3e9c29dd	0.3050069
98	0x3e8df061	0.27722457
99	0xbed1e710	-0.409966
100	0x3e3462c0	0.17615795
101	0x3d440705	0.047858257
102	0xbe0f01ce	-0.13965532
103	0xbdbcfef0	-0.09228313
104	0xbe0315dd	-0.12801309
105	0xbcf392ef	-0.02973315
106	0x3e666737	0.22500311
107	0x3e1fa660	0.15590811
108	0xbea92771	-0.33037904
109	0xbe6e012e	-0.23242638
110	0x3e35a46e	0.17738506
111	0x3e9a8ea1	0.30186942
112	0x3df146b6	0.11781065
113	0x3e986ed4	0.29772055
114	0x3d0de8f1	0.03464598
115	0x3dd5c889	0.1043864
116	0x3cb53cf4	0.022123791
117	0xbe95f1e0	-0.29286098
118	0x3f1202fa	0.5703579
119	0x3d96ec75	0.07369319
120	0x3b95a6ab	0.0045669875
121	0x3e63541f	0.22200058
122	0x3edfdd04	0.4372331
123	0x3e12e858	0.14346445
124	0x3ed33302	0.41249853
125	0x3ed9e66c	0.4255861
126	0xbe78716f	-0.24262021
127	0x3ea5bb31	0.32369378
128	0x3e61971c	0.220303
129	0xbdac22bb	-0.08405062
130	0xbbbed243	-0.005823405
131	0xbe23ebf8	-0.16007984
132	0x3e48baff	0.19602583
133	0xbea30f12	-0.31847435
134	0xbe99e85a	-0.30060083
135	0xbe904dee	-0.28184456
136	0x3ebd029a	0.36916047
137	0xbe5a24a4	-0.2130304
138	0x3ecd5d8c	0.40110433
139	0x3ef8be9d	0.48582926
140	0xbe033b00	-0.12815475
141	0x3f106875	0.5640939
142	0x3c80bb32	0.015714262
143	0x3e378523	0.17921881
144	0x3d588659	0.0528625
145	0x3e9d400e	0.30712932
146	0x3e867d7f	0.2626762
147	0x3d8c736b	0.06857952
148	0x3e5b8855	0.21438725
149	0x3eec9aee	0.46211952
150	0x3e03c1af	0.12866853
151	0xbe77d9ac	-0.24204129
152	0xbe0fe920	-0.14053774
153	0x3e5b924f	0.21442531
154	0x3d8aae7c	0.067715615
155	0x3ec105bb	0.37699685
156	0x3cbc8c2b	0.023016056
157	0xbe07a9aa	-0.13248315
158	0x3c969d0a	0.018385429
159	0x3e8e7bb7	0.27828762
160	0xbaace5f8	-0.0013191095
161	0xbcea0ca7	-0.028570486
162	0x3d81bdf8	0.06335062
163	0xbf047da4	-0.5175421
164	0xbe86b674	-0.26311076
165	0x3e046e66	0.12932739
166	0x3e125a00	0.14292145
167	0xbe10c473	-0.1413744
168	0x3e702edb	0.23455374
169	0xbe82d653	-0.2555414
170	0x3e22610e	0.15857336
171	0x3dd6e281	0.10492421
172	0xbdcb101e	-0.099151835
173	0x3e4fd99a	0.20297852
174	0x3e82bbf9	0.25534037
175	0xbf17d5dc	-0.593107
176	0x3e575475	0.21028312
177	0xbe3cd93a	-0.1844224
178	0x3e1110cb	0.14166562
179	0xbeb7f3f9	-0.35928324
180	0x3d110697	0.035406675
181	0xbe0cdbfc	-0.13755792
182	0x3e3f8795	0.18704064
183	0xbe7c7e9b	-0.24657671
184	0x3ea5248f	0.32254454
185	0xbc992f98	-0.018699452
186	0xbe95336e	-0.291408
187	0xbddd3ce3	-0.10802629
188	0xbecb8f35	-0.39757696
189	0x3e34d310	0.17658639
190	0xbeb72a9a	-0.3577469
191	0xbdd6647a	-0.10468383
192	0xbcf64d28	-0.030066088
193	0xbe8b2e8c	-0.2718395
194	0x3e5fb9dd	0.21848245
195	0xbeb9ce63	-0.36290273
196	0xbd9a9f02	-0.075498596
197	0xbe998e90	-0.2999158
198	0xbe89ef3b	-0.2694033
199	0x3ea43379	0.3207052
200	0xbed5d349	-0.4176276
201	0x3cfcc84f	0.030857233
202	0xbf17b7b4	-0.59264684
203	0xbd9f6743	-0.077833675
204	0xbeb80b1f	-0.35945985
205	0x3e3f0e34	0.18657762
206	0xbb106406	-0.0022032275
207	0x3eb4f8f3	0.35346183
208	0x3e12f8ef	0.14352773
209	0xbd6eae82	-0.058271892
210	0xbe975862	-0.29559618
211	0xbf1c67e9	-0.61096054
212	0x3e517a00	0.20456696
213	0xbea756e9	-0.32683495
214	0x3d4bff4c	0.049804017
215	0xbe667ccb	-0.22508542
216	0x3da288c1	0.0793624
217	0x3e7d6f31	0.24749447
218	0xbd3765ed	-0.04477494
219	0xbe4da055	-0.20080693
220	0x3f14dc2f	0.58148474
221	0xbec1a696	-0.37822407
222	0x3e6cee73	0.23137836
223	0x3daa47f4	0.08314505
224	0x3db113ae	0.08646332
225	0x3de18e4c	0.11013469
226	0xbc8c6f02	-0.017142776
227	0xbd0ae88a	-0.033913173
228	0x3ebf7059	0.37390402
229	0x3ee0023c	0.43751705
230	0xbe901ea7	-0.28148386
231	0x3d8a2c2e	0.06746708
232	0x3e7e2c0c	0.2482149
233	0x3f050061	0.51953703
234	0xbee5fe3d	-0.4492053
235	0xbadfc775	-0.0017072993
236	0x3cb72d09	0.022360342
237	0xbd191abf	-0.037379023
238	0xbea0b252	-0.31386048
239	0x3e625de4	0.22106129
240	0xbe8c34ed	-0.2738413
241	0x3e7f05fb	0.24904625
242	0xbdc1a47d	-0.09455202
243	0xbdc75872	-0.097336665
244	0xbe88a79e	-0.26690382
245	0xbed0e60a	-0.40800506
246	0xbe399760	-0.18124151
247	0xbe36f463	-0.17866664
248	0xbe9d2453	-0.30691776
249	0xbe3252e1	-0.17414428
250	0x3e6c8179	0.23096265
251	0x3ec050b6	0.37561578
252	0xbda94b41	-0.08266307
253	0xbe273d02	-0.16331866
254	0xbd60a9ca	-0.054849423
255	0xbe14c845	-0.14529522

encoder.layers.0.multi_head_blocks.multi_head.0.q.bias f4 [9]
0	0x3d619034	0.055069163
1	0xbe954ff6	-0.29162568
2	0x3e90e837	0.28302166
3	0xbdaf4fe1	-0.085601576
4	0x3e424a61	0.18973686
5	0x3c179174	0.009250987
6	0xbd4028b8	-0.046913832
7	0x3d8be267	0.06830292
8	0x3e6a7bed	0.22898836

encoder.layers.0.multi_head_blocks.multi_head.0.k.weight f4 [9, 36]
0	0x3f0d3c13	0.5516979
1	0x3e387c22	0.18016103
2	0x3ef680da	0.4814518
3	0xbe3d1bae	-0.1846759
4	0x3ea77833	0.32708892
5	0x3e0d39d5	0.13791592
6	0x3e2a87df	0.16653393
7	0xbef95e19	-0.48704603
8	0x3e8662c7	0.26247236
9	0x3e59da82	0.2127476
10	0xbd53d996	-0.051721178
11	0x3ebaf97c	0.36518466
12	0x3f1956cf	0.59898084
13	0x3e005ac0	0.12534618
14	0x3e7313a8	0.23737967
15	0xbe9bafb7	-0.30407497
16	0x3db7ef75	0.0898122
17	0xbee6a396	-0.4504668
18	0xbeb94f96	-0.36193532
19	0x3dc3bd82	0.0955763
20	0x3ec020ec	0.37525117
21	0x3e923eb9	0.2856348
22	0xbe0d0ea9	-0.13775124
23	0xbe2ffa62	-0.17185357
24	0x3e805281	0.25062945
25	0x3e42b3fa	0.19013968
26	0x3f30a961	0.6900845
27	0x3ebef37f	0.37295148
28	0x3d8c3b88	0.06847292
29	0xbed43922	-0.4144984
30	0xbc87c7e4	-0.016574807
31	0x3ec924a3	0.39285764
32	0x3efb199f	0.49042985
33	0xbe70f10c	-0.23529452
34	0xbe0049a9	-0.12528099
35	0x3cae356a	0.021265704
36	0xbcf43432	-0.029810045
37	0xbe3affaa	-0.1826159
38	0x3d5dad2b	0.054120224
39	0x3eb8a64c	0.36064374
40	0x3ef2a58e	0.47391933
41	0x3e0bf1c8	0.13666451
42	0x3d430c4c	0.04761915
43	0xbecc192f	-0.39862964
44	0x3ea844b7	0.32864925
45	0xbef30964	-0.47468102
46	0xbddbe378	-0.107367456
47	0xbe3a359c	-0.18184513
48	0x3f018747	0.5059704
49	0x3ea1c070	0.3159213
50	0xbe9c7819	-0.30560377
51	0xbe59da7c	-0.21274751
52	0x3e08a42c	0.13343877
53	0xbc2b486d	-0.010454279
54	0xbd92317e	-0.07138346
55	0xbea287c4	-0.31744206
56	0xbe87fb25	-0.26558796
57	0x3db4d8b7	0.088303976
58	0x3e2c4d69	0.16826405
59	0xbe1faefa	-0.15594092
60	0x3e454206	0.19263467
61	0x3dd59b3e	0.10430001
62	0x3ef25638	0.47331405
63	0x3e113b8b	0.1418287
64	0x3d9c5209	0.076328345
65	0xbec36bf3	-0.38168296
66	0x3c21d664	0.009877775
67	0xbd8102d0	-0.062993646
68	0x3e7e3881	0.24826242
69	0xbe9bb606	-0.3041231
70	0x3d1c6273	0.038179826
71	0x3d6ba82a	0.05753342
72	0x3e455088	0.19269001
73	0x3e485935	0.1956528
74	0x3dc4aedd	0.09603665
75	0xbdf26680	-0.118359566
76	0xbca4486e	-0.020054068
77	0x3dc32f18	0.09530467
78	0xbda19bd4	-0.0789105
79	0xbdad7ec6	-0.08471446
80	0x3eab055e	0.33402532
81	0x3cb2a436	0.021806818
82	0xbd33dcba	-0.043911673
83	0x3dca5ff1	0.098815806
84	0x3c698983	0.014253977
85	0x3d1c8519	0.03821287
86	0xbe2593a6	-0.16169605
87	0x3dd6095d	0.10451005
88	0xbc0e61ea	-0.008690337
89	0x3db96a42	0.0905347
90	0x3ef9cba8	0.4878819
91	0x3e292c80	0.16520882
92	0x3ec1522c	0.37758005
93	0xbea4a596	-0.32157582
94	0x3ea56511	0.3230367
95	0xbeb60c2e	-0.35556167
96	0xbd8930dc	-0.06698772
97	0x3e48dfa2	0.19616559
98	0xbed37b4a	-0.41305
99	0xbe603945	-0.21896847
100	0x3eb47ffa	0.35253888
101	0x3dfd004b	0.123535715
102	0xbd838b51	-0.06423057
103	0xbf04d81a	-0.51892245
104	0xbd45ffa7	-0.048339512
105	0x3e890569	0.2676194
106	0x3e08219a	0.13294068
107	0x3e61c3cd	0.22047348
108	0x3ce7bed1	0.02828923
109	0xbde9ce51	-0.11416305
110	0x3cf89c8d	0.030348087
111	0xbe92f6a3	-0.28703794
112	0xbe5abae7	-0.2136036
113	0xbe03a7c6	-0.12856969
114	0x3e9039ab	0.28168997
115	0xbeb88122	-0.3603602
116	0x3eb6499e	0.3560304
117	0xbeefdf52	-0.46850067
118	0x3c3ad0b1	0.011402295
119	0x3e42743a	0.1898965
120	0x3e3a3460	0.18184042
121	0xbe02bf0e	-0.12768194
122	0x3f22a1bc	0.6352804
123	0x3d01944a	0.03163556
124	0x3e257086	0.16156206
125	0xbe7e5dcb	-0.24840467
126	0x3e9a908c	0.30188406
127	0xbe80a5b3	-0.25126418
128	0x3f023700	0.50865173
129	0xbecd88d4	-0.40143454
130	0x3ea6858f	0.32523772
131	0x3d20a970	0.03922409
132	0x3ef44bb9	0.47714022
133	0xbed0cf4a	-0.4078315
134	0x3e5d7ff6	0.21630844
135	0xbe80e1cd	-0.25172272
136	0x3e809fb9	0.2512186
137	0xbea7f269	-0.32802132
138	0x3e7abcc0	0.24486065
139	0x3da13ac0	0.07872534
140	0xbd7ced55	-0.061749775
141	0xbeb71db2	-0.35764843
142	0x3e955232	0.29164273
143	0xbe91a586	-0.28446597
144	0x3f035416	0.5130018
145	0x3dee75a1	0.1164353
146	0xbd9be405	-0.07611851
147	0x3e693fb9	0.22778215
148	0x3db67c8a	0.08910473
149	0x3e2b0725	0.16701944
150	0xbdcf484f	-0.10121214
151	0xbdae7ce0	-0.08519912
152	0x3d4749ad	0.048654247
153	0xbe5f854a	-0.2182819
154	0x3e97fbb3	0.2968422
155	0x3eb5ba9d	0.35493937
156	0xbec70941	-0.38874248
157	0x3d8b8630	0.068127036
158	0x3e7c2671	0.24624039
159	0x3e1ebfa0	0.15502787
160	0x3c2a63ca	0.010399768
161	0xbe030d40	-0.12798023
162	0x3dcf2f29	0.10116417
163	0x3e312cca	0.17302242
164	0x3dd0dd03	0.10198405
165	0xba6f4bb7	-0.0009128409
166	0x3eb3a484	0.35086453
167	0xbee099ad	-0.43867245
168	0x3d6cd6a7	0.057821896
169	0x3e8a5592	0.2701841
170	0xbe296715	-0.16543229
171	0x3e0df3ee	0.13862583
172	0x3e8e0eb8	0.27745605
173	0xbe6db497	-0.23213421
174	0x3de55998	0.11198729
175	0xbe19c327	-0.15015851
176	0x3ea55a7a	0.3229559
177	0x3ce51433	0.027963733
178	0xbe255e61	-0.16149284
179	0xbe75d8dd	-0.24008508
180	0xbd19d6cc	-0.037558362
181	0x3d960f9a	0.073271945
182	0xbeb4226b	-0.3518251
183	0x3ea2cc8e	0.31796688
184	0x3e27bb8b	0.16380136
185	0x3bd061bd	0.0063593076
186	0xbe2f8687	-0.17141162
187	0x3eed0972	0.4629627
188	0xbe3ab8a8	-0.18234503
189	0x3e4870b2	0.1957424
190	0x3dbc7e5f	0.09203791
191	0x3d3cbc50	0.046078026
192	0xbec0ff9d	-0.37695017
193	0x3e7f4f02	0.24932483
194	0xbe3a1731	-0.1817291
195	0x3e44c19b	0.1921448
196	0xbe7ef3e5	-0.24897726
197	0x3d8ef817	0.06980913
198	0xbeab71da	-0.334853
199	0xbe72063d	-0.23635192
200	0xbf391c03	-0.7230837
201	0x3d0bbec7	0.034117486
202	0x3d9f69fd	0.077838875
203	0xbd8742b4	-0.066045195
204	0xbe09a3c3	-0.13441376
205	0xbe714e98	-0.23565137
206	0x3e498c8e	0.19682524
207	0x3e421f22	0.18957189
208	0xbf0f0745	-0.5587047
209	0x3e9dce90	0.30821657
210	0xbe8eac64	-0.278659
211	0x3cac7a1f	0.021054326
212	0xbe038eee	-0.12847492
213	0x3e7c5090	0.24640107
214	0xbe0ec363	-0.13941722
215	0x3d97597b	0.07390114
216	0x3dbe10c4	0.092805415
217	0x3e372efc	0.17889017
218	0xbe2a7d2e	-0.16649315
219	0x3d73bd7d	0.059506882
220	0xbeb454a9	-0.3522084
221	0x3eab050e	0.33402294
222	0xbdfdc4e1	-0.12391067
223	0x3e97c1d3	0.29640064
224	0xbdd4d569	-0.10392267
225	0x3e030b02	0.12797168
226	0xbe95d9e0	-0.29267788
227	0xbdbafb36	-0.09129946
228	0xbccb19e4	-0.024792619
229	0x3e0545d1	0.13014914
230	0xbeaac511	-0.33353475
231	0x3da8b9c3	0.08238556
232	0xbd78adbc	-0.06071256
233	0xbe33a7a5	-0.1754442
234	0xbe848a96	-0.25886983
235	0xbe4907c6	-0.19631872
236	0x3cceb70c	0.025233768
237	0x3ef5870a	0.4795459
238	0xbf164220	-0.5869465
239	0xbd15ccc0	-0.036572218
240	0xbece436f	-0.40285823
241	0x3da01a3d	0.078175046
242	0x3e65f545	0.22456844
243	0xbe509f4a	-0.20373264
244	0xbddd02b9	-0.10791535
245	0x3e2f291e	0.17105529
246	0xbe57aa26	-0.21061
247	0x3c6260f6	0.013817063
248	0x3de3fc98	0.11132163
249	0xbc52972b	-0.012853424
250	0xbe8b3719	-0.27190474
251	0x3b097a34	0.002097738
252	0xbe906017	-0.2819831
253	0xbcae5188	-0.021279112
254	0x3e1ddb80	0.15415764
255	0xbdfda64c	-0.12385234

encoder.layers.0.multi_head_blocks.multi_head.0.k.bias f4 [9]
0	0x3e40702b	0.18792789
1	0x3f020cfc	0.5080106
2	0xbe6e2e83	-0.2325993
3	0x3e905c1f	0.28195283
4	0x3d2f54e6	0.042805575
5	0xbdb3bc9c	-0.08776209
6	0x3e4d2a1f	0.20035599
7	0xbd704cee	-0.058667116
8	0xbc1e34b5	-0.009656121

encoder.layers.0.multi_head_blocks.multi_head.0.v.weight f4 [9, 36]
0	0x3e550ea0	0.2080636
1	0xbd2638a5	-0.040581364
2	0x3e17d43b	0.14827053
3	0xbd744c4a	-0.059643067
4	0x3e8e52ab	0.27797446
5	0xbe7a68a6	-0.24453983
6	0xbd5cc2e3	-0.053896796
7	0x3e514ef5	0.20440276
8	0x3c85697c	0.01628565
9	0x3e7de59a	0.24794617
10	0xbe3e32d0	-0.18574071
11	0xbe7decde	-0.24797389
12	0xbe9a858d	-0.30180016
13	0xbe89f260	-0.2694273
14	0x3ea43f43	0.32079515
15	0xbe1c6e0e	-0.15276358
16	0x3df5b64b	0.1199766
17	0x3e752c97	0.23942791
18	0xbd3f6e62	-0.04673613
19	0x3f028987	0.509911
20	0x3e1fd405	0.15608223
21	0xbebb3435	-0.36563268
22	0x3ebe28cf	0.3714051
23	0xbf13691e	-0.5758227
24	0xbe811699	-0.25212553
25	0xbe11c526	-0.14235362
26	0xbdcf9a07	-0.101368
27	0xbd180a8e	-0.03711944
28	0xbe4a81e5	-0.19776113
29	0xbba1563d	-0.0049236105
30	0xbe1ca582	-0.15297511
31	0x3e5649c7	0.20926581
32	0x3e81f09b	0.2537888
33	0x3e825bde	0.25460714
34	0x3e506706	0.203518
35	0xbf17e90b	-0.5933997
36	0xbdf0b1b5	-0.11752645
37	0xbc13a41c	-0.009011295
38	0xbeb4cabb	-0.3531092
39	0xbe669b74	-0.22520238
40	0xbedf9ce5	-0.4367439
41	0x3ef413df	0.4767141
42	0xbbf80230	-0.00756862
43	0xbdbd46e4	-0.09242037
44	0xbeb42895	-0.35187212
45	0xbeb11c6a	-0.3459199
46	0x3c9044ba	0.017610896
47	0x3e0927f8	0.13394153
48	0xbe4de476	-0.20106682
49	0x3ed92cc5	0.4241697
50	0xbea37eca	-0.3193267
51	0x3ef581f7	0.47950718
52	0x3d02ef5b	0.03196655
53	0x3e37ee49	0.17961992
54	0xbea34736	-0.31890267
55	0x3e76b035	0.24090655
56	0x3e0bc0b6	0.13647732
57	0x3e392e7a	0.18084136
58	0xbe8d179f	-0.27557084
59	0x3e9e5839	0.30926684
60	0x3de73ea5	0.11291245
61	0xbd6e9d3c	-0.05825542
62	0x3bd348f6	0.0064479066
63	0xbe6b0af3	-0.22953396
64	0x3eaa1703	0.33220682
65	0xbe4fe6af	-0.20302843
66	0x3e75569c	0.2395882
67	0xbe4560ae	-0.19275162
68	0xbebda0e6	-0.37036818
69	0x3e8a6977	0.27033588
70	0xbb42b830	-0.0029711835
71	0x3f370bc5	0.71502334
72	0xbd73a74b	-0.059485715
73	0x3d35a200	0.04434395
74	0xbd92aff1	-0.071624644
75	0x3e934520	0.28763676
76	0x3f05495c	0.5206506
77	0x3e45e7f5	0.19326766
78	0x3e578fd7	0.21050964
79	0x3f2d05fa	0.67587245
80	0x3e7b64d8	0.24550188
81	0xbe0633b8	-0.13105667
82	0x3efd3046	0.49450892
83	0xbe13ac61	-0.14421226
84	0x3e3758d2	0.17904976
85	0x3e790e14	0.24321777
86	0x3e9cfa27	0.306596
87	0xbebe76cf	-0.3720002
88	0xbdacd4ae	-0.08439003
89	0x3da8378b	0.08213719
90	0x3e4f4a62	0.20243219
91	0xbeb78200	-0.3584137
92	0xbe76224a	-0.24036518
93	0xbf1f3289	-0.62186486
94	0x3e0f5217	0.13996159
95	0xbe34595b	-0.17612211
96	0x3ef837cd	0.48480073
97	0xbe3dccc4	-0.18535143
98	0xbe293aee	-0.16526386
99	0xbeab8495	-0.3349959
100	0x3ebdd53f	0.37076756
101	0x3e4feccb	0.20305173
102	0x3e601636	0.21883473
103	0xbe7f0d18	-0.24907339
104	0x3d857dd7	0.06518143
105	0xbeb7b2a5	-0.35878482
106	0xbe94cf10	-0.29064226
107	0xbecfe4eb	-0.40604338
108	0x3e35abc2	0.17741302
109	0xbeab2078	-0.3342321
110	0x3d572013	0.052520823
111	0xbe92c527	-0.2866604
112	0x3e10bbfc	0.1413421
113	0x3ec6c2d9	0.38820532
114	0x3e1414b3	0.14461021
115	0xbe7efa48	-0.24900162
116	0xbe80c5c2	-0.25150877
117	0xbf01146c	-0.50421786
118	0x3e9b7c0e	0.30368084
119	0x3e83eb6b	0.25765547
120	0xbe664c6e	-0.22490093
121	0x3f64cae0	0.8937206
122	0x3de872bc	0.11350009
123	0x3eba6920	0.3640833
124	0xbd9320f9	-0.071840234
125	0x3f5303bd	0.8242758
126	0x3d92fad7	0.0717675
127	0x3c97ccab	0.01853021
128	0xbe21f5de	-0.15816447
129	0x3bfe93bc	0.007769076
130	0x3e4d42c4	0.20045
131	0x3e83cfba	0.2574442
132	0x3e3ad409	0.18244947
133	0x3ecb9049	0.39758518
134	0xbec34923	-0.38141736
135	0x3e884861	0.2661772
136	0xbdb15c31	-0.08660162
137	0x3e20f7d6	0.15719542
138	0x3e12ea20	0.14347124
139	0xbe4147d5	-0.18875058
140	0xbda9d491	-0.08292497
141	0xbe6c3981	-0.23068811
142	0xbecd6626	-0.40116996
143	0x3eadf536	0.33976144
144	0xbe3a0c9c	-0.18168873
145	0x3d55ffc2	0.052245863
146	0x3dd74c8a	0.105126455
147	0x3e25e414	0.16200286
148	0x3e9359c2	0.28779417
149	0xbeb22786	-0.3479578
150	0x3e23abfc	0.15983576
151	0x3e5666ea	0.20937696
152	0x3e6b3fab	0.22973506
153	0xbe800e58	-0.25010943
154	0x3e2d6365	0.16932447
155	0xbda526f5	-0.08064071
156	0xbed2a357	-0.41140243
157	0x3eedf57a	0.46476346
158	0xbddd19d4	-0.10795942
159	0xba978c48	-0.0011562193
160	0x3b79a652	0.003809352
161	0x3f2d93bb	0.67803544
162	0x3eea41c4	0.457533
163	0x3ed86b02	0.4226914
164	0xbe27e71f	-0.1639676
165	0x3e07f161	0.13275672
166	0x3f27012c	0.65236163
167	0x3d9a327c	0.075291604
168	0x3eb9d969	0.36298683
169	0xbe8a096e	-0.2696032
170	0x3da87850	0.08226073
171	0xb9984da1	-0.00029049537
172	0xbdedf223	-0.116184495
173	0xbe7a54a5	-0.24446352
174	0x3e23612b	0.15955035
175	0xbce43664	-0.027857967
176	0xbe32c2ef	-0.17457174
177	0x3d699680	0.057028294
178	0xbed2b262	-0.4115172
179	0xbe75be06	-0.2399827
180	0x3ec6ece8	0.3885262
181	0xbe431d00	-0.19054031
182	0xbe3e71ca	-0.18598095
183	0x3e8eb7e4	0.27874672
184	0x3eae2df9	0.3401945
185	0xbde5679d	-0.11201403
186	0x3e6e9b30	0.23301387
187	0x3effb7f4	0.49945033
188	0x3e68d5d8	0.22737825
189	0x3e2b3350	0.16718793
190	0xbddb314e	-0.107027635
191	0xbee2a654	-0.44267523
192	0x3e131d2d	0.14366598
193	0xbebe7ff8	-0.37207007
194	0xbece032d	-0.40236798
195	0xbf03fd4a	-0.51558363
196	0xbe63d7cf	-0.22250293
197	0xbefa6e63	-0.48912343
198	0x3e9fda45	0.31221214
199	0x3eb1e738	0.34746718
200	0x3e4befe7	0.19915734
201	0xbdc6d19e	-0.0970795
202	0xbdd36d53	-0.10323586
203	0x3e5aceb9	0.21367921
204	0xbe895730	-0.2682433
205	0x3e3309fe	0.1748428
206	0x3e2f02c3	0.17090897
207	0xbdc7b369	-0.09751017
208	0xbeda04f3	-0.425819
209	0x3e8af113	0.2713705
210	0xbea3c1bf	-0.31983754
211	0xbd1494c5	-0.03627469
212	0x3eb82083	0.35962304
213	0xbe851a83	-0.2599679
214	0xbd1243cc	-0.035709187
215	0xbed90bbc	-0.42391765
216	0xbe9d8123	-0.30762586
217	0x3ec2d886	0.3805582
218	0x3d1f1812	0.038841315
219	0xbe35367f	-0.1769657
220	0x3e45397a	0.19260207
221	0x3e989e09	0.2980807
222	0xbf04f604	-0.5193789
223	0xbba40e38	-0.005006578
224	0xbead74af	-0.33878085
225	0x3e36b2ea	0.17841688
226	0xbeaa1f98	-0.3322723
227	0xbe6dd350	-0.2322514
228	0x3e963097	0.29333946
229	0x3d28ba98	0.041193575
230	0x3d7818f8	0.060570687
231	0xbdd6f823	-0.10496547
232	0xbf00d3c6	-0.5032314
233	0xbd61f227	-0.055162575
234	0x3cf31c6d	0.02967664
235	0xbe3f5b55	-0.18687184
236	0xbe58b52b	-0.2116286
237	0xbed435b3	-0.4144722
238	0x3dd88b7a	0.10573478
239	0xbe79a7cc	-0.24380416
240	0x3e51e8f6	0.20499024
241	0x3ea23cde	0.31687063
242	0xbe4c26a6	-0.19936618
243	0xbeb683ac	-0.35647333
244	0xbd62811c	-0.05529891
245	0x3e8f261f	0.27958772
246	0xbeab9359	-0.33510855
247	0xbf0faddd	-0.5612467
248	0x3ed8e8a3	0.42364988
249	0xbee0eeb6	-0.43932122
250	0xbe29c883	-0.16580395
251	0x3e83c6e1	0.2573767
252	0xbe8fbf65	-0.2807571
253	0x3c5ed2cf	0.013600065
254	0x3e4556a2	0.19271329
255	0xbe95950c	-0.29215276

encoder.layers.0.multi_head_blocks.multi_head.0.v.bias f4 [9]
0	0xbdfe7971	-0.12425507
1	0x3df89a18	0.12138766
2	0x3e3513e6	0.17683372
3	0xbc83a41e	-0.016069468
4	0xbd4ec94c	-0.05048494
5	0xbe1a0675	-0.15041526
6	0x3eaa87a8	0.33306623
7	0x3e1c7d99	0.15282287
8	0xbc9442f9	-0.018098341

encoder.layers.0.multi_head_blocks.multi_head.1.q.weight f4 [9, 36]
0	0x3d87eaad	0.06636558
1	0x3e526a15	0.2054828
2	0x3de34748	0.1109758
3	0x3cd9d171	0.026589127
4	0x3e283b44	0.16428858
5	0xbe92bf34	-0.286615
6	0xbe7014ea	-0.23445478
7	0xbd5c287d	-0.05374955
8	0x3e9ee6c0	0.31035423
9	0xbe187284	-0.14887434
10	0xbde8aae8	-0.11360723
11	0x3d93a525	0.07209233
12	0x3de052ad	0.10953269
13	0xbe8a7beb	-0.27047667
14	0xbdb8d438	-0.090248525
15	0x3e0b8eec	0.13628739
16	0xbdb2cc1c	-0.08730337
17	0x3e0246e9	0.12722363
18	0x3d5e66be	0.0542972
19	0x3e63e54e	0.22255442
20	0x3dd426ba	0.10358949
21	0xbde3e63e	-0.111278996
22	0x3ecacc27	0.3960888
23	0xbec795a0	-0.38981342
24	0x3e366eba	0.17815676
25	0xbe48135e	-0.19538638
26	0x3ded33ca	0.115821436
27	0x3d53d2bc	0.051714644
28	0x3eb3ff70	0.3515582
29	0xbbae98a2	-0.005328254
30	0xbe80e3b8	-0.25173736
31	0x3e17cd14	0.14824325
32	0x3db4c3fa	0.08826442
33	0xbe1f2fab	-0.15545528
34	0x3e7a4379	0.24439801
35	0xbe3b139f	-0.18269204
36	0xbd3f498f	-0.04670101
37	0xbf31eb89	-0.69500023
38	0x3eb8da58	0.36104083
39	0xbd9489b8	-0.0725283
40	0x3ee91707	0.4552538
41	0x3ed194fd	0.40933982
42	0x3eddd7f4	0.43328822
43	0xbe977911	-0.29584554
44	0x3d8101e1	0.062991865
45	0xbea979e3	-0.33100805
46	0x3ea63d02	0.3246842
47	0x3cd17ba8	0.02557166
48	0x3ef73c34	0.4828812
49	0x3e459fe9	0.19299282
50	0x3e6f016f	0.2334039
51	0xbd910ba4	-0.070822984
52	0x3e5e683f	0.21719454
53	0xbed75005	-0.42053238
54	0xbd7ac28a	-0.061220683
55	0xbe3eb840	-0.18624973
56	0x3e81b64e	0.253344
57	0x3e4baa27	0.19889127
58	0xbdce27d8	-0.10066193
59	0xbd434619	-0.047674272
60	0x3def6907	0.11689954
61	0x3e960817	0.29303047
62	0x3e5eee85	0.21770675
63	0xbe0865f2	-0.13320139
64	0xbe4ed2c6	-0.20197591
65	0xbd553acd	-0.05205803
66	0x3dc218fa	0.0947742
67	0xbe03e486	-0.12880144
68	0xbda61ac8	-0.08110577
69	0xbedb51c6	-0.42835826
70	0xbd544d27	-0.05183139
71	0x3df27ee9	0.118406124
72	0xbe935f99	-0.28783873
73	0xbc4ed18e	-0.012623204
74	0xbdb77592	-0.08957972
75	0x3e1824c3	0.14857773
76	0x3e1eb1ab	0.15497462
77	0xbe6d56de	-0.23177668
78	0xbe4282d4	-0.1899522
79	0xbebf6ae8	-0.3738625
80	0x3de8fc95	0.11376301
81	0xbd10592b	-0.035241287
82	0x3c9375ae	0.01800045
83	0x3e2d6ffb	0.16937248
84	0x3e7ba41b	0.2457432
85	0xbe82cec7	-0.25548384
86	0xbcdd5649	-0.027018683
87	0x3cb69aed	0.022290671
88	0xbee1ea62	-0.44124132
89	0xbe48256c	-0.19545525
90	0x3ec1dae2	0.37862307
91	0x3edc084e	0.42975086
92	0xbd9e3125	-0.07724217
93	0x3ea6fd1b	0.3261498
94	0xbe1fad25	-0.15593393
95	0xbe711121	-0.2354169
96	0xbe8c643f	-0.27420232
97	0x3ddb77f7	0.10716241
98	0xbeefecd5	-0.46860376
99	0x3e1e6b5a	0.15470639
100	0xbe2b6a2f	-0.16739725
101	0x3d96a6c7	0.07356029
102	0xbe24388f	-0.160372
103	0x3edb2bf0	0.4280696
104	0x3e1ca6e9	0.15298046
105	0x3dbd54ef	0.092447154
106	0x3ec46c07	0.38363668
107	0x3d095266	0.033525847
108	0xbcb28307	-0.021790994
109	0xbe20d31c	-0.15705532
110	0xbd075043	-0.033035528
111	0x3db0f25a	0.08639975
112	0x3e836b9f	0.25668046
113	0x3e8d3184	0.2757684
114	0x3dc77ffe	0.097412094
115	0xbe8ada0a	-0.27119476
116	0x3ed395e6	0.413253
117	0xbea26fba	-0.31725866
118	0x3d961dfa	0.07329936
119	0x3de1f09f	0.11032223
120	0x3e32a8d7	0.1744722
121	0xbeab9ba9	-0.33517197
122	0x3e58b183	0.21161465
123	0x3e708b9c	0.23490757
124	0xbeeebef0	-0.4663005
125	0xbd74ab68	-0.05973378
126	0x3d5e05a9	0.054204617
127	0x3e4a1f6a	0.19738546
128	0xbe983529	-0.29728058
129	0xbe827f5d	-0.25487795
130	0xbd9d9a10	-0.07695401
131	0xbe9f95db	-0.31169018
132	0x3d08be8a	0.033384837
133	0x3cdbd35f	0.026834188
134	0x3e5c9f40	0.21545124
135	0x3c86e690	0.016467363
136	0x3bd73d9c	0.0065686237
137	0x3dc3f197	0.09567564
138	0x3ceacce8	0.02866216
139	0xbed43cda	-0.41452676
140	0xbedb0133	-0.42774352
141	0x3ee1c4bf	0.44095418
142	0xbeb7e313	-0.3591543
143	0xbecbccfb	-0.39804825
144	0x3f015c14	0.50531125
145	0x3e81bfec	0.25341737
146	0xbcdd8854	-0.027042545
147	0xbdaada9e	-0.08342479
148	0xbe9cdcdc	-0.30637252
149	0x3e95d1e6	0.29261702
150	0xbd93304e	-0.07186948
151	0x3cb5a43d	0.022173041
152	0xbe7d6338	-0.2474488
153	0x3e42c317	0.19019733
154	0x3e509628	0.2036978
155	0x3eb7c033	0.35888824
156	0x3dd8fa49	0.10594613
157	0xbe7b03ae	-0.24513122
158	0x3e399f09	0.18127073
159	0x3e629c35	0.22129901
160	0x3efca59e	0.49345106
161	0x3d5afc89	0.053463493
162	0x3ccbe69a	0.024890233
163	0x3cb66590	0.022265226
164	0x3e881077	0.26575062
165	0xbe8145d9	-0.25248602
166	0x3e2e92fb	0.17048256
167	0xbd172981	-0.036904816
168	0xbe6f12bb	-0.23346989
169	0x3e32b4bc	0.17451757
170	0xbe71661f	-0.23574112
171	0xbbe7d554	-0.0070749912
172	0xbe2a0b44	-0.1660586
173	0x3e4c7284	0.19965559
174	0x3eb51991	0.35371068
175	0x3ed34e83	0.41270837
176	0xbe468e4e	-0.19390222
177	0xbdfa26b6	-0.12214415
178	0xbe0503fe	-0.12989804
179	0x3d874c25	0.0660632
180	0x3dda44dd	0.10657666
181	0xbe7daf7e	-0.24773976
182	0x3c8ae990	0.016957074
183	0xbe0a0b00	-0.13480759
184	0xbe16297e	-0.14664266
185	0xbe84886c	-0.25885332
186	0x3e78f228	0.24311125
187	0xbed98acb	-0.42488703
188	0xbe1854f3	-0.14876156
189	0xbd728d4a	-0.059216775
190	0x3dc4864f	0.0959593
191	0x3e02cd97	0.12773739
192	0x3e038632	0.1284416
193	0xbe2735ef	-0.16329168
194	0x3d91f024	0.07125881
195	0x3e4bcab0	0.19901538
196	0xbd907bc5	-0.07054857
197	0x3eb4269a	0.351857
198	0xbd8b7218	-0.06808871
199	0x3e8f45c1	0.27982906
200	0xbcc6ac86	-0.024252187
201	0xbde51fb0	-0.111876845
202	0x3c9a36ef	0.018825023
203	0xbea0a93e	-0.31379122
204	0xbf0c9613	-0.54916495
205	0x3e81cfb9	0.25353792
206	0x3e351bd2	0.17686394
207	0x3ef4fd95	0.47849718
208	0xbe4e56af	-0.20150255
209	0x3e2c5947	0.16830932
210	0xbda3ffe6	-0.08007793
211	0xbd74779f	-0.059684392
212	0xbc5005d6	-0.012696704
213	0x3db40692	0.08790316
214	0xbe74b5fb	-0.23897545
215	0x3eb702fc	0.35744464
216	0x3d07db88	0.033168346
217	0x3ed538e7	0.41644976
218	0x3e8c4ecc	0.27403867
219	0xbea31894	-0.3185469
220	0x3e35b613	0.17745237
221	0x3e0124fb	0.12611763
222	0x3eb6ed25	0.35727802
223	0xbc8a801f	-0.016906796
224	0xbd9e3ff1	-0.077270396
225	0xbd19a67b	-0.037512284
226	0xbe42992b	-0.19003741
227	0xbe2a6c64	-0.1664291
228	0x3e2ed3c2	0.17072967
229	0x3ed70328	0.41994596
230	0x3e10f3b3	0.14155464
231	0xbef9a665	-0.4875976
232	0x3e979013	0.29602107
233	0x3d2ad928	0.041711003
234	0x3f0092a2	0.50223744
235	0x3eb718c1	0.35761073
236	0x3d308b2e	0.043101482
237	0x3c507750	0.012723759
238	0xbe912931	-0.2835174
239	0xbe396745	-0.181058
240	0x3e9087ed	0.28228703
241	0x3d9e5146	0.077303454
242	0xbeb5c78e	-0.3550381
243	0xbec9a348	-0.39382386
244	0x3e92e693	0.2869154
245	0xbdd89fbe	-0.105773434
246	0xbd8eeece	-0.06979142
247	0xbbffaac7	-0.0078023407
248	0x3d601ff8	0.054717988
249	0xbe596228	-0.2122885
250	0xbead4c31	-0.33847192
251	0xbdac024a	-0.08398874
252	0x3e91a0b4	0.2844292
253	0x3eb5deef	0.35521647
254	0x3db37ce9	0.08764059
255	0xbd3b1409	-0.045673404

encoder.layers.0.multi_head_blocks.multi_head.1.q.bias f4 [9]
0	0x3e29bdf2	0.16576365
1	0x3ea834d9	0.3285282
2	0x3ca723a0	0.02040273
3	0xbc95282f	-0.018207638
4	0xbe9c94ec	-0.30582368
5	0xbe57189e	-0.21005484
6	0xbe26d824	-0.16293389
7	0xbeb361c5	-0.3503553
8	0x3dbfb9d4	0.09361616

encoder.layers.0.multi_head_blocks.multi_head.1.k.weight f4 [9, 36]
0	0xbe823c90	-0.2543683
1	0xbdd060b8	-0.10174698
2	0xbdb8d3bd	-0.09024761
3	0xbf00ccef	-0.50312704
4	0x3e65ef9a	0.22454682
5	0x3e49e1ce	0.19715044
6	0x3e4cce8c	0.20000666
7	0xbc853e59	-0.016265081
8	0x3e2b469d	0.16726156
9	0xbda5cc97	-0.08095663
10	0xbe6eab65	-0.2330757
11	0x3d88a08e	0.066712484
12	0xbe1034e0	-0.1408267
13	0x3c4e3106	0.01258493
14	0x3e71ebd4	0.23625118
15	0x3da92d90	0.082606435
16	0x3e7062a7	0.23475133
17	0xbe640755	-0.22268422
18	0x3e32328e	0.17402098
19	0x3d7685e2	0.060186274
20	0xbd284582	-0.041081913
21	0xbe9f20b6	-0.31079644
22	0x3e9adbeb	0.3024591
23	0xbda46dd9	-0.08028764
24	0x3d7c2f36	0.06156846
25	0xbe886096	-0.2663619
26	0xbd9a432c	-0.07532343
27	0x3e98634c	0.29763258
28	0x3e8f0201	0.27931216
29	0xbdc5be13	-0.096553944
30	0x3e974f9b	0.29552922
31	0x3e010721	0.12600376
32	0x3e1c3988	0.15256321
33	0xbd342468	-0.043980032
34	0xbd993b1f	-0.074819796
35	0xbd92a9cb	-0.07161292
36	0x3f088dbc	0.5334127
37	0x3e90ee40	0.2830677
38	0x3e10cb7b	0.14140122
39	0x3ea21ee3	0.3166419
40	0x3eab34c5	0.33438697
41	0xbebdb0c2	-0.37048918
42	0x3eecf514	0.4628073
43	0xbe53da4a	-0.2068874
44	0x3e3ddc94	0.18541175
45	0xbd809455	-0.06278292
46	0x3e33fc45	0.17576702
47	0x3e226a94	0.15860969
48	0xbc9c8de2	-0.019110624
49	0x3be63467	0.00702529
50	0x3eea798b	0.45795855
51	0xbea8c9de	-0.32966512
52	0x3f1f24e1	0.6216565
53	0xbdca8382	-0.098883644
54	0x3dfa9d06	0.12236981
55	0xbe018624	-0.12648827
56	0x3d31bbaf	0.04339188
57	0xbefa9ddf	-0.4894857
58	0x3ef5d8f6	0.4801709
59	0xbf103305	-0.5632785
60	0x3e637e2d	0.22216101
61	0xbed6f9b5	-0.41987386
62	0x3e315869	0.17318882
63	0xbd4de795	-0.050269682
64	0x3e2af7a4	0.1669603
65	0xbd8f0e47	-0.06985145
66	0xbe74fc82	-0.23924449
67	0x3d1b186c	0.037865087
68	0xbc6540c9	-0.013992497
69	0xbd4d8fab	-0.05018584
70	0x3e315409	0.17317213
71	0xbe1233af	-0.14277528
72	0x3d94d966	0.07268028
73	0x3deba2b1	0.1150564
74	0x3e674efe	0.22588727
75	0xbe90f26c	-0.28309953
76	0xbef6626d	-0.48121968
77	0x3e624fa8	0.22100699
78	0x3e6e5a7c	0.23276705
79	0x3d34419a	0.044007875
80	0xbec73871	-0.3891025
81	0xbea7b257	-0.3275325
82	0xbe5c03ec	-0.21485871
83	0xbe8ec27e	-0.2788276
84	0x3e09db31	0.13462521
85	0xbe546958	-0.2074331
86	0xbeb922ed	-0.3615946
87	0x3de95de7	0.113948636
88	0xbc499b16	-0.012305042
89	0x3e950053	0.2910181
90	0xbec098a1	-0.37616447
91	0x3ce0e816	0.027454417
92	0xbd675753	-0.056479763
93	0xbe2af592	-0.1669524
94	0xbc20201b	-0.00977328
95	0x3e8233f2	0.25430256
96	0xbcddb253	-0.02706257
97	0x3dd69776	0.10478108
98	0x3d9a0d8e	0.075221166
99	0xbcbdbd49	-0.023161547
100	0xbd94e43c	-0.07270095
101	0x3e89c4b9	0.269079
102	0xbe29db73	-0.1658762
103	0xbea68a03	-0.3252717
104	0x3d37f324	0.04490961
105	0x3ec50eae	0.38487762
106	0x3ec1fc1a	0.3788765
107	0xbc0e3604	-0.0086798705
108	0x3e010388	0.12599003
109	0xbe5229e3	-0.20523791
110	0x3e69b3c5	0.22822483
111	0x3c48f18e	0.012264622
112	0xbe0e7947	-0.13913451
113	0x3e83b441	0.2572346
114	0xbe8e1d17	-0.2775657
115	0x3c088404	0.008332256
116	0x3e052ccf	0.13005374
117	0xbe16a07f	-0.14709662
118	0x3efb1f31	0.49047235
119	0x3ea8cd4c	0.3296913
120	0x3d2d245f	0.042271014
121	0xbe54e30b	-0.20789735
122	0x3c1d35b6	0.009595325
123	0x3e910e31	0.2833114
124	0x3d8ab7b3	0.06773319
125	0xbdbf79ca	-0.09349401
126	0xbc0e6cdf	-0.008692949
127	0xbc9de315	-0.01927332
128	0x3d1a7e13	0.03771789
129	0x3e1087f8	0.14114368
130	0xbe743edc	-0.23852104
131	0x3d19abb3	0.03751726
132	0x3dfdf58c	0.1240035
133	0xbdfb8b88	-0.12282473
134	0xbd7112c8	-0.0588558
135	0xbe218b73	-0.15775852
136	0x3e76f7d6	0.2411798
137	0xbde071a9	-0.10959179
138	0xbe903706	-0.2816698
139	0x3d625a45	0.05526187
140	0x3e420243	0.18946175
141	0x3eff992a	0.49921542
142	0x3b676c65	0.003531241
143	0xbe999832	-0.29998928
144	0x3e8f249d	0.2795762
145	0xbe8cdc65	-0.27511898
146	0xbd14830b	-0.036257785
147	0xbe42d7ca	-0.1902763
148	0xbdd2accb	-0.10286864
149	0xbe86df68	-0.2634232
150	0xbea632ed	-0.32460728
151	0x3ee08a81	0.4385567
152	0xbeb5db5c	-0.3551892
153	0xbe423339	-0.18964852
154	0xbeab3864	-0.3344146
155	0x3d98ebe5	0.07466868
156	0x3db977a2	0.09056021
157	0xbe91f540	-0.28507423
158	0x3ea1efb1	0.31628183
159	0x3b74943f	0.0037319807
160	0x3f1378aa	0.57605994
161	0x3e604145	0.21899898
162	0x3e41ffc5	0.18945225
163	0xbe182c18	-0.1486057
164	0x3e863776	0.26214188
165	0xbe15ed04	-0.14641196
166	0xbc738e8b	-0.014865528
167	0x3d88309a	0.06649895
168	0xbeb3c907	-0.3511431
169	0x3e3bed0a	0.18352142
170	0xbe3d0af9	-0.18461217
171	0x3c0a2477	0.008431545
172	0xbe8f3f03	-0.27977762
173	0x3ea7c31c	0.32766044
174	0x3d802753	0.062575005
175	0x3e476338	0.19471443
176	0xbe40911f	-0.1880536
177	0xbe1a6e35	-0.15081103
178	0xbe76bb80	-0.24094963
179	0x3eb41191	0.35169652
180	0xbe61cbb5	-0.22050364
181	0x3e818201	0.25294498
182	0x3dd8bde8	0.10583097
183	0x3bc75319	0.006082904
184	0x3e4629cb	0.1935188
185	0x3e11f3ab	0.14253108
186	0xbe9b1963	-0.30292806
187	0x3e832542	0.25614363
188	0x3d015260	0.0315727
189	0x3cfe03df	0.031007705
190	0xbebbb3df	-0.36660668
191	0x3ea330d6	0.31873196
192	0xbe66eeff	-0.22552107
193	0x3de21db9	0.110408254
194	0x3d66be9c	0.056334123
195	0x3d556711	0.052100245
196	0xbe375d3a	-0.17906657
197	0xbe92e309	-0.2868884
198	0xbe5c169f	-0.21493004
199	0x3d8624d5	0.06549994
200	0x3d15728e	0.0364862
201	0x3eeb4a9b	0.45955357
202	0xbdbb6045	-0.09149221
203	0xbe66aa3c	-0.22525877
204	0xbdd48957	-0.10377758
205	0xbe51a5ac	-0.20473355
206	0xbd839bf9	-0.06426234
207	0x3e5413d7	0.20710693
208	0xbde07c28	-0.10961181
209	0x3e5fb6b6	0.21847042
210	0xbe43a839	-0.1910714
211	0x3ca510a6	0.02014954
212	0xbef06282	-0.46950155
213	0x3e0fea0a	0.14054123
214	0xbeb97a3c	-0.3622607
215	0x3e887483	0.2665139
216	0xbeb6611f	-0.35620973
217	0xbeb3fb15	-0.35152498
218	0xbe0fe61a	-0.1405262
219	0xbebbd37d	-0.3668479
220	0xbe686677	-0.22695337
221	0xbd971bed	-0.07378373
222	0x3e0a914c	0.13531989
223	0x3d27c21b	0.040956598
224	0x3d634818	0.055488676
225	0x3e1ead9b	0.15495913
226	0x3dd3a7f7	0.10334771
227	0x3d133dcd	0.03594761
228	0xbdc40550	-0.09571326
229	0x3d8a91c2	0.06766082
230	0x3ddbac31	0.10726202
231	0xbe57f72c	-0.21090382
232	0xbed83ede	-0.42235464
233	0xbe9b23a0	-0.30300617
234	0xbde68258	-0.1125533
235	0xbdc72303	-0.09723475
236	0xbe02cff0	-0.12774634
237	0xbe68f1d5	-0.22748502
238	0x3ea09653	0.31364688
239	0x3e37dccf	0.17955326
240	0x3e01b464	0.1266647
241	0xbe5233aa	-0.20527521
242	0xbe6909c0	-0.22757626
243	0xbe1e08cb	-0.15433042
244	0x3d8a473f	0.0675187
245	0x3dbc6344	0.09198621
246	0x3ed8bab3	0.4232994
247	0xbe7b34fc	-0.2453193
248	0xbeafda9d	-0.34346476
249	0x3df8bef4	0.121457964
250	0xbe2b1c55	-0.16710027
251	0xbe216055	-0.15759404
252	0x3c2ffe8c	0.010741841
253	0x3e385108	0.17999661
254	0x3d7264de	0.059178226
255	0xbe3d1e6b	-0.18468635

encoder.layers.0.multi_head_blocks.multi_head.1.k.bias f4 [9]
0	0xbe300a0f	-0.17191337
1	0xbdbc6032	-0.09198035
2	0x3d9b54da	0.075845435
3	0xbdadc00c	-0.08483896
4	0x3e0caeeb	0.13738601
5	0xbcec57be	-0.028850432
6	0x3e473f0d	0.19457646
7	0xbcc3844e	-0.023866799
8	0xbe02d504	-0.12776572

encoder.layers.0.multi_head_blocks.multi_head.1.v.weight f4 [9, 36]
0	0x3f3fb4a2	0.74885
1	0x3e935b20	0.2878046
2	0xbcc813b2	-0.024423454
3	0x3ef7daf2	0.4840923
4	0x3ecb0964	0.39655602
5	0xbec35f67	-0.38158724
6	0xbdd4b43a	-0.10385938
7	0xbf5c1fca	-0.85986006
8	0xbf01447c	-0.50495124
9	0x3e19c07d	0.15014835
10	0xbe957cc6	-0.29196757
11	0xbeb81ad1	-0.3595796
12	0x3e618628	0.22023833
13	0x3edf2970	0.43586302
14	0x3d41b99d	0.047296155
15	0xbe809686	-0.2511484
16	0x3e930d6a	0.28721172
17	0x3e657e07	0.22411357
18	0xbd4d0d56	-0.050061546
19	0x3e7f9ba9	0.24961723
20	0xbebf1385	-0.3731958
21	0xbd855b34	-0.06511536
22	0x3e859282	0.2608834
23	0xbe6ef731	-0.23336484
24	0xbedeb0bf	-0.43494222
25	0xbe05fbd7	-0.1308435
26	0x3de9d6f0	0.11417949
27	0x3f24fd34	0.6444886
28	0xbe642181	-0.22278406
29	0xbd301366	-0.04298725
30	0xbe9e2c3e	-0.3089313
31	0xbe48774f	-0.19576763
32	0x3e0e2188	0.13879979
33	0xbd6f9259	-0.058489177
34	0xbefffdab	-0.4999822
35	0x3ed6489a	0.41852266
36	0xbeb96deb	-0.36216673
37	0xbeb19c48	-0.34689546
38	0xbe839d3f	-0.25705907
39	0x3eb2202f	0.3479018
40	0x3bae6ee8	0.0053232796
41	0x3eb4bc68	0.35299993
42	0x3e4c0b4f	0.19926189
43	0x3f0270c1	0.509533
44	0x3ea05909	0.31317928
45	0x3ea74599	0.32670286
46	0x3eb74e98	0.3580215
47	0xbefe4dba	-0.49668676
48	0xbe6d8f87	-0.23199283
49	0xbee02026	-0.43774527
50	0x3e69262a	0.22768465
51	0x3e940205	0.2890779
52	0xbdee7c17	-0.11644762
53	0xbe6f50d8	-0.23370683
54	0xbd9f2c04	-0.07772067
55	0x3db65390	0.08902657
56	0x3c7bb68d	0.015363348
57	0x3e3ca0a7	0.18420659
58	0x3e83f745	0.2577459
59	0xbea5a5c4	-0.32353032
60	0x3e9064c8	0.2820189
61	0x3d8e5df7	0.06951516
62	0xbed4933e	-0.41518587
63	0xbf07f64e	-0.53110206
64	0xbee264ec	-0.44217622
65	0x3ee3deb9	0.4450586
66	0x3ee65d0f	0.44992873
67	0x3ebdb2aa	0.37050372
68	0xbdbdeeb9	-0.09274048
69	0xbe61cac4	-0.22050005
70	0xbdec3d9b	-0.11535188
71	0xbefda3e3	-0.49539098
72	0xbef63529	-0.48087433
73	0xbe33733c	-0.17524427
74	0xbdf57efc	-0.11987111
75	0x3bc31c6f	0.0059543173
76	0xbeb8229a	-0.359639
77	0x3cae2f0c	0.021262668
78	0xbae46498	-0.0017424999
79	0x3ea05e98	0.3132217
80	0x3e849052	0.25891358
81	0x3e99f117	0.3006675
82	0x3e5b6041	0.21423437
83	0xbd807f29	-0.06274254
84	0xbe944ad6	-0.28963345
85	0xbe34508d	-0.17608853
86	0x3f1727cf	0.5904512
87	0x3e332a96	0.17496714
88	0xbe55ddb1	-0.2088535
89	0x3e3d13dd	0.18464608
90	0xbe5adc99	-0.21373214
91	0x3e36da83	0.17856793
92	0x3e3c18c8	0.18368828
93	0xbda57104	-0.08078197
94	0x3e6829fe	0.22672269
95	0xbe5d15cf	-0.2159035
96	0x3ea2cdb5	0.31797567
97	0x3e3856f9	0.18001927
98	0xbf1e439c	-0.61821914
99	0xbea61bf2	-0.32443196
100	0x3e2b99a2	0.16757825
101	0xbdb2ae67	-0.08724671
102	0x3ef86063	0.48511037
103	0x3dd9060f	0.10596859
104	0x3e080d14	0.13286239
105	0xbafdffb4	-0.0019378574
106	0x3db94a43	0.090473674
107	0xbee30bfa	-0.44345075
108	0xbeba63e4	-0.36404335
109	0xbec5c50d	-0.386269
110	0xbef8cb61	-0.48592666
111	0x3dd598e9	0.10429556
112	0xbe904178	-0.2817495
113	0x3dda81de	0.106693015
114	0x3ef408d3	0.47662982
115	0x3ea2795d	0.31733218
116	0x3c21e85c	0.009882059
117	0x3e3e2a0f	0.18570732
118	0x3ee740f5	0.45166746
119	0xbe8f11f1	-0.27943376
120	0xbe62ba94	-0.22141486
121	0x3d183ff2	0.037170358
122	0x3f0150eb	0.50514096
123	0xbef9e826	-0.48809928
124	0xbe49e653	-0.19716768
125	0xbe81c978	-0.2534902
126	0xbda650e7	-0.081209
127	0xbdbabe9b	-0.09118386
128	0x3f0e7cdc	0.5565927
129	0xbe1c8ae7	-0.15287362
130	0xbe8bf7fd	-0.27337638
131	0xbdf9270a	-0.12165649
132	0x3eaef574	0.3417164
133	0x3e2f4dd3	0.17119531
134	0x3d75c569	0.060002718
135	0xbf78f7c9	-0.9725309
136	0xbe7583c2	-0.23976043
137	0x3cc04f38	0.023475274
138	0xbd8629ee	-0.06550966
139	0x3ed57881	0.416935
140	0x3ea535ce	0.32267612
141	0x3e0da002	0.1383057
142	0xbe60c041	-0.21948339
143	0xbeecfc82	-0.46286398
144	0x3df82915	0.12117211
145	0x3e0ee6a6	0.13955173
146	0xbe9a7e33	-0.30174407
147	0x3e432db2	0.190604
148	0xbd1bf013	-0.03807075
149	0x3e48c97b	0.19608109
150	0x3e7673f4	0.2406767
151	0x3f2e8065	0.68164665
152	0x3eaeef43	0.34166917
153	0x3dc0943c	0.094032735
154	0x3db39b75	0.087698855
155	0xbee258dd	-0.44208422
156	0xbe6eedb3	-0.23332863
157	0xbf1af512	-0.605302
158	0x3da5085c	0.08058235
159	0x3e149ff5	0.14514144
160	0x3e74ffd2	0.23925713
161	0xbe874efe	-0.26427454
162	0xbe106e74	-0.14104635
163	0x3f18703e	0.5954627
164	0x3d734fe1	0.05940235
165	0x3f56112a	0.8361994
166	0x3d3ac9b9	0.045602534
167	0xbea79966	-0.3273422
168	0x3ecedf25	0.4040462
169	0x3dfda54f	0.12385046
170	0xbd9b07a0	-0.07569814
171	0xbe00e222	-0.12586263
172	0xbe40eb5b	-0.18839781
173	0x3f23a9fb	0.63931245
174	0xbe9b277e	-0.30303568
175	0x3ec7a9d5	0.3899676
176	0x3e9a4143	0.30127916
177	0xbe1f7a7d	-0.1557407
178	0x3cf2f7f2	0.029659245
179	0xbef724dd	-0.48270312
180	0x3e4c9260	0.19977713
181	0x3ec81505	0.39078537
182	0xbe2120dc	-0.15735191
183	0xbe3ff25a	-0.18744794
184	0xbedc2ecc	-0.43004453
185	0x3e783c18	0.24241674
186	0xbf08b55a	-0.5340172
187	0xbe4d047f	-0.20021246
188	0xbc848bca	-0.016179938
189	0x3f01c0a4	0.5068457
190	0xbe7f0d03	-0.24907307
191	0x3edbbff6	0.42919892
192	0xbdaf90a6	-0.085725114
193	0x3de980fd	0.11401556
194	0x3d229d9a	0.03970108
195	0x3e4828ae	0.19546768
196	0xbe916272	-0.2839542
197	0x3da00103	0.07812693
198	0xbeaaae9b	-0.33336338
199	0x3e45b3d9	0.19306888
200	0x3e263b76	0.1623362
201	0x3d33870c	0.043829963
202	0xbe364e3b	-0.1780328
203	0x3e392659	0.18081035
204	0x3cdb1082	0.02674127
205	0xbe4165b9	-0.1888646
206	0xbe93eee3	-0.28893194
207	0x3efd2785	0.49444214
208	0x3e0e94fa	0.13924018
209	0x3ecf6764	0.40508568
210	0x3d8c88c5	0.06862024
211	0x3ea2f502	0.3182755
212	0x3d6bb23d	0.05754303
213	0x3eaf02db	0.34181866
214	0x3efdd501	0.49576572
215	0x3e6c1219	0.23053779
216	0xbdecec42	-0.115685
217	0xbef18334	-0.47170413
218	0xbe88a545	-0.2668859
219	0xbe934e28	-0.28770566
220	0x3cdbe86b	0.026844224
221	0xbe1d3e63	-0.1535583
222	0x3e2ce29a	0.16883317
223	0x3e9375c7	0.28800794
224	0xbe3ac662	-0.1823974
225	0xbef9ee29	-0.48814514
226	0x3e7b64fb	0.2455024
227	0x3ecc404e	0.3989281
228	0x3ed35166	0.4127304
229	0x3f8d5527	1.1041611
230	0x3ebefee9	0.37303856
231	0x3d31f726	0.04344859
232	0x3f299c29	0.66253906
233	0xbe911a0e	-0.2834019
234	0x3ef637ad	0.48089352
235	0xbdef32ad	-0.116795875
236	0x3e3a916d	0.18219538
237	0xbe972acb	-0.29524836
238	0x3d8cc45e	0.068733916
239	0x3eb39ede	0.35082144
240	0xbf064605	-0.5245059
241	0x3efd197e	0.49433511
242	0x3ed5bd27	0.41745874
243	0x3b57ceab	0.003292958
244	0xbca497bd	-0.020091886
245	0xbd59452b	-0.05304448
246	0xbf2242ef	-0.6338338
247	0xbe283297	-0.16425548
248	0x3ee9e67c	0.45683658
249	0x3d95c3be	0.073127255
250	0xbe950593	-0.29105815
251	0x3ea09d92	0.31370217
252	0x3e4777ee	0.19479343
253	0x3ed929d7	0.42414734
254	0xbec37d3f	-0.38181493
255	0x3e688e32	0.22710493

encoder.layers.0.multi_head_blocks.multi_head.1.v.bias f4 [9]
0	0xbd86df13	-0.06585517
1	0xbd975c5e	-0.073906645
2	0x3d358726	0.04431834
3	0x3e75d9ca	0.24008861
4	0xbdbcac52	-0.09212555
5	0x3e121b18	0.14268148
6	0x3c15b2e3	0.009136888
7	0x3cf88f1c	0.030341677
8	0xbd95eb9e	-0.07320331
